Project_1/gcn/model_loss.pkl (torch_old, 524750 bytes, 10 tensors)

weight f4 [59, 64]
00000000: 8765 eebd 69aa 6fbc da0a a9af d328 c63c
00000010: 07ee e9bd 6eeb c43d 251b 58be ccd9 a9b9
00000020: e0fd 78bb 37bb 083d 320e 3ebd 34c2 ed3d
00000030: a86c 6cbe 7cf5 e6bb c145 aabc ca30 43bd
00000040: b32b ecbd 29ff 823d 834e 3fbd d077 bc3c
00000050: b2bf 963d 1363 583c ef17 293d 8f0b d53d
00000060: e598 96bd 1fdf dbba 388f 9dbd 0cfd 953d
00000070: 0dc9 a63d 7cf9 73be a135 bc3d bb52 c73c
00000080: 67ba 0d3d f42b da3c cc90 a93d 850f f3bc
00000090: 0121 19be 883c 4fbd cce4 dbbd 6807 c1bc
000000a0: 12bb e4bc 5fc0 b5bd a96e a8bd 3359 b73d
000000b0: b821 f8bc dac4 2bbc 1037 623a f17a af3b
000000c0: 0b74 d73d e6c2 583d dc6e 0c3d 300a 0d3c
000000d0: c8ce ac3d 049b 5b3d 3875 11bd a24a 153c
000000e0: 84f3 a9bd 4532 c43d e128 acba 29c9 79b8
000000f0: a4f2 05bc b8c9 b73d ba69 01be 0960 cebd
00000100: 9114 c1bd b565 c8bc e066 5c8f e02e e13d
00000110: 494b 4fbd 14ca 813d 119f 7a3e 4a26 92b1
00000120: 97bc 7db3 6748 90bd ef55 74b9 bd73 43bd
00000130: e0ae 2d3e cbad 25bb ae54 0bb7 0138 ac3d
00000140: 4529 2f3c 3e44 1dbc 49c7 e63b 92dd c4bc
00000150: 980a acbd 33ee d73c c665 a0be 2b0c 2d3c
00000160: 1de7 f03d a094 21b9 d8bd 863d 4520 ce3d
00000170: 6bfc a13c 2600 173e 08c5 aabd 3bfc cdbb
00000180: 4223 e83d b808 923d 2e3e 633d 7974 96bc
00000190: 6e77 8d3d 0f47 f1bd f01e b03b e3b1 4abd
000001a0: 298a 0bbe cd54 c33d 2bce 8d3e fe2b b63d
000001b0: ad86 63bd 392c 74bc b189 4a3d 8827 9fbd
000001c0: 2ab5 2e39 c646 03bd 953d b1bd 26e7 a8bc
000001d0: dd54 a9be a189 9bbd e559 453d b774 4bbe
000001e0: 56af 92bc adb9 8d3c 0053 dda6 3c0b 0b38
000001f0: a4e3 cd3d 561f 92be ac23 133d d6d5 00be
00000200: 7616 a8bc 06f8 94bd 5d70 1810 0fae c3bd
00000210: 1d55 89bb b5ea 69be 2bce f63d 0b00 1bb4
00000220: 4973 67a7 b7fd f9bc c442 2bb9 6d3c a3be
00000230: 5613 dd3c 4fea 08ba 90d0 93b2 863d 0dbc
00000240: aada 0b3e 41c4 4cbd e27b bcbc 9bf8 29bb
00000250: 2644 38bd e86d e73c bd62 99bd 8ccb acbd
00000260: bfcb 0cbd 1362 da36 f4bf d33c c34a 903d
00000270: 7246 14be 151f 95bd 51d3 d8bc 2ed4 ffbb
00000280: 4991 f03b 5780 ccbc 5253 80be ece2 eebc
00000290: 3ac0 ad3c c6fd 83ba 3e32 fbbc 82f8 15bd
000002a0: 1cad 273e 5602 de3d d333 8ebd a2a7 49be
000002b0: 2474 203e 8854 1b3c 3886 ee3d 8b86 49be
000002c0: bf04 c83c a89c 93bd 83eb 033b fcf0 23ba
000002d0: acb5 c2bd 3cfa 0dbe 2b82 1abd ba35 f03c
000002e0: b27a d9bb 7bc6 9e3d 699f 52a3 b375 333a
000002f0: 0ef3 bfbd df93 9cbd 6329 a0bd 4651 e7bd
00000300: 6606 813e 434e c93d 111e 0080 3f2b cb3d
00000310: b7e9 aaba a75a 31be d320 9abe 0595 d020
00000320: f150 0180 188a e939 a2e9 920d 113f 713e
00000330: 56ef 85bc 925d bbb8 97de bc11 3201 9cbd
00000340: 9539 88be fe8b 803d a676 5c3e e6d9 39bb
00000350: 5855 133e af6a f8bc 02f3 163b d0a1 913c
00000360: aebe fcbd 3ea8 6634 bcee 893e 608f e2bc
00000370: 60b7 abbd cb3d c1bc 1101 be3d f3fe 0dad
00000380: f5ff 933d 5500 9b3d 80b3 3fbe 4b8c e93d
00000390: 154a de3a 0e0c 3cbc e91f 9b3d 5598 6e3e
000003a0: f126 86be 88b3 86bd 6fe0 a53d ef89 c4bd
000003b0: 8c9f bcbd 4a47 c6bc 6152 48be 593d 883a
000003c0: 9303 4f3c a9ab 043e e09e 103e e4d0 2d3c
000003d0: c17c 113d d257 533d 7465 1fbe abfd 533d
000003e0: 76f2 55bb 49e7 873e db80 3523 1892 1339
000003f0: 825c 933d 80ac 3f3e 2b4a 613e 703d 4d3e
-0.116404586 -0.014628031 -3.0748631e-10 0.024189388 -0.11422353 0.09615217 -0.21104105 -0.00032396463
-0.0037993118 0.033381667 -0.046400256 0.11609307 -0.23088324 -0.007048307 -0.020785214 -0.04765395
-0.115317725 0.06396324 -0.046705734 0.02300635 0.07360782 0.013207215 0.04128259 0.10402595
-0.07353381 -0.0016774869 -0.076933324 0.073236555 0.08143816 -0.2382564 0.091899164 0.024331441
0.034601595 0.026632287 0.08279571 -0.029670486 -0.14953996 -0.050594836 -0.10736999 -0.023563102
-0.027921233 -0.088745825 -0.08224232 0.0895256 -0.030289516 -0.010483945 0.0008629421 0.005355232
0.1052018 0.052920245 0.03428541 0.008608386 0.08437878 0.05361463 -0.03551218 0.009112032
-0.082984 0.09579901 -0.0013134741 -5.955357e-05 -0.008175526 0.08974022 -0.12637988 -0.10076911
-0.09427751 -0.02446256 -1.08666505e-29 0.10995269 -0.050608907 0.063373715 0.24474742 -4.253512e-09
-5.9077674e-08 -0.0704506 -0.00023301666 -0.0477178 0.16961241 -0.002528059 -8.304762e-06 0.084091194
0.010690992 -0.00959879 0.0070427996 -0.024031434 -0.08400458 0.0263587 -0.31327647 0.010561983
0.11762831 -0.00015409524 0.065791786 0.10064749 0.019773683 0.1474615 -0.08338362 -0.0062861717
0.1133485 0.07130569 0.05547922 -0.018366085 0.06907545 -0.117811315 0.005374782 -0.049486052
-0.13626923 0.09537659 0.27696356 0.088951096 -0.05554836 -0.014903122 0.04944772 -0.07771212
0.00016661422 -0.032049917 -0.08654324 -0.020618033 -0.33072558 -0.0759461 0.048181433 -0.19868742
-0.017905872 0.017300451 -1.5357453e-15 3.3150645e-05 0.10053185 -0.28539532 0.03592269 -0.12581572
-0.020518523 -0.07273869 3.0063276e-29 -0.095546834 -0.0041910545 -0.2284344 0.12051042 -1.4435516e-07
-3.2120186e-15 -0.030516488 -0.00016332703 -0.3188204 0.02698676 -0.0005222903 -1.7207896e-08 -0.008620625
0.13657632 -0.04999185 -0.02300829 -0.0025935534 -0.044986866 0.02825065 -0.07489536 -0.08437261
-0.034373995 6.5083236e-06 0.025848366 0.0704551 -0.14479998 -0.07281319 -0.026467951 -0.007807276
0.007341538 -0.024963541 -0.25063568 -0.02916094 0.021209825 -0.0010070137 -0.030663606 -0.03661395
0.1637463 0.10840289 -0.069434784 -0.19692853 0.15669304 0.009480603 0.11646694 -0.1968023
0.024416326 -0.07207614 0.002012939 -0.0006253866 -0.095073074 -0.13864988 -0.037721794 0.029322494
-0.006636941 0.07752701 -1.1417879e-17 0.00068458467 -0.09372531 -0.07645392 -0.07820394 -0.112947986
0.25200194 0.0982938 -1.0786e-41 0.09920358 -0.0013039623 -0.17319737 -0.30103168 3.5335183e-19
-1.20872e-40 0.0004454411 9.05419e-31 0.23559214 -0.016349476 -8.934284e-05 2.9798352e-28 -0.076174155
-0.26606432 0.062767014 0.21529636 -0.0028358637 0.14388025 -0.030324308 0.0023033028 0.017777354
-0.12341057 2.1481625e-07 0.26939952 -0.027656257 -0.083845854 -0.023589035 0.09277547 -8.071532e-12
0.07226554 0.07568423 -0.18720818 0.11403712 0.0016959334 -0.011477483 0.07574446 0.23300298
-0.26201585 -0.065772116 0.08099448 -0.09596621 -0.09210119 -0.024203915 -0.19562675 0.001039426
0.0126351295 0.12956108 0.14123106 0.010608885 0.035519365 0.051597424 -0.15566045 0.05175559
-0.0032645739 0.26543644 9.839316e-18 0.00014073437 0.07195379 0.18718147 0.22000949 0.20042968

bias f4 [64]
00000000: 2259 dabd 5bec 8f3d b801 2e0f adea e0bd
00000010: 6a1b 08bd b69f 403d 0dbc 62be de42 08b7
00000020: 04ad 84b8 0521 c0bd f364 05bc dc3e c0bd
00000030: 3c5b e2bc 6b72 2abb 97ac 19bb 139e aa3d
00000040: 554b a3bc 827b 933c 8e46 a1bd fb6e 5b3c
00000050: d90c b8bd 9d4d 993d de1e 473d dbbe 09be
00000060: 4c6e bfbd 158d edb9 5aa1 14bc c1d9 c2bc
00000070: c291 1aba 0514 773d 562d 83bd 04d3 52bd
00000080: b31c 02be 0e67 73bd 6cab ca3d a370 6ebc
00000090: c0c8 d3bd 728b ca3d e290 18bd 8604 163d
000000a0: 8f41 ab3b 13d6 cd3b 6b3f a8bd 39b6 923d
000000b0: e5a9 82bd 84a3 23bc a2ac 95bc f670 c73d
000000c0: b29e d7bd f703 983d 3e54 7e3c 87d7 1dbd
000000d0: 635e b23d 0db3 a0bd f409 b2bd 3c42 c7bc
000000e0: f676 48bd 92d0 25bb 75ca f9b2 9dc6 11b8
000000f0: f5a8 0fbe d8b3 03be ecec 3e3a 2af9 76bd
-0.10661532 0.07027503 8.579193e-30 -0.10982261 -0.03322927 0.047027312 -0.22142048 -8.1218e-06
-6.326477e-05 -0.09381298 -0.008141744 -0.093869895 -0.027631395 -0.002600814 -0.0023448819 0.083309315
-0.019933382 0.018003229 -0.07874785 0.013393159 -0.089868255 0.07485507 0.04861342 -0.13451712
-0.09347209 -0.00045309277 -0.009071672 -0.023785474 -0.00058963534 0.060321826 -0.064051315 -0.05147077
-0.1270626 -0.059424452 0.098959774 -0.014553222 -0.103410244 0.09889878 -0.037247546 0.036625408
0.005226321 0.006281623 -0.08215221 0.071636625 -0.06380061 -0.009987716 -0.018270794 0.097383425
-0.105283156 0.07422631 0.015523015 -0.03853562 0.08709409 -0.07846651 -0.08693305 -0.024323575
-0.048941575 -0.002530132 -2.9079482e-08 -3.4755667e-05 -0.14029296 -0.12861574 0.0007283229 -0.060296215

weight f4 [64, 128]
00000000: 4ecf 933c 237a 12bc 098a 12ba 9d18 84bc
00000010: 8913 481f bee6 383d e472 aaba d514 fd3c
00000020: 3dd7 02bd 3b3f 8e37 acac 913c bc39 04bd
00000030: 2c15 1e3b 6467 c0b4 dfdf 5bbc caca a9bb
00000040: 0c7d 43bc 9094 50bc 7a28 2d3a d492 2fbd
00000050: 6f55 9abc 3857 d93b dbdc a5bc df53 0ab6
00000060: 71b2 62b2 2ad5 fe3d 3e6c 9c3d 5001 873c
00000070: 2f99 fe3b 8468 df3b ca27 1ab7 546d 5dbc
00000080: be6b 52bd 0aa3 86bc f9ee 0dbc e225 d6bc
00000090: 85fc 62bb 5589 633b 1131 183c 87cd d2bb
000000a0: 5e1e 533c ac1f b0bc 1095 c43c ae34 f3bc
000000b0: 1f7a ecbc 3f1e 5e39 2781 1e3d d5d2 0f3c
000000c0: e5c6 c1bc e244 5abc c24d efbb 8c9c 27ba
000000d0: c4af 86ba 48ff 403c d0ea e1bb 2de3 063d
000000e0: eb6c 23bd 8f8d 90bc f5ff 05bb cd4a 2bbd
000000f0: d222 980c 01c3 083c c51f 93bb 2c9a 05bc
00000100: 9c9e fa3c 445d 113b a09d 87bd 3001 b238
00000110: 78c1 153a dcdf c8bb a726 513d 15f7 9d3a
00000120: c33e f93c 0b0c 27bd 29c3 c1bc 9f01 66bc
00000130: 4685 c635 4e98 76bc 96d0 33b9 ca5f 2ebb
00000140: 8e36 113c 0fb1 3dbc 9639 27b9 78f7 c1b9
00000150: 1a16 8bbd 6d07 51bc ab59 3b3d 772d 8c3d
00000160: 95d7 cebb 92c4 84bc 34ea 70bc dcee 003a
00000170: a3ae 0e24 e257 7f37 881b 45bb 58f7 13b9
00000180: 329f 2422 f1ca 5dbc d0ca 28bd b31e c8ba
00000190: 0b1f a1bc c14c d7bb 7a64 003d d166 97bc
000001a0: c25a 3ebd 22c2 58bd f941 e9bd b6c3 b43c
000001b0: 53d8 703a 4cdb e5bb 9167 843d 9605 fa3c
000001c0: 1705 27b8 592f 523d d569 91bc 382c 2e3d
000001d0: 5eee 763d e75d 1d2d 2e8c 743d 600c 593c
000001e0: bd3d 1fbd cc84 f33c 862e 113c 315a 15bb
000001f0: 7833 f9bc 3083 26bc afd6 403d 4ed4 94bc
00000200: 2692 6ebd 1995 88bd bad8 2e3d 5bef 923c
00000210: 46a0 5db7 fd82 43bc b129 febc 101a c03c
00000220: 1664 94bc a319 a1bc 7df3 b43c 1333 11bc
00000230: e823 77bd af1e 84bb d0b0 0e3d 9f96 36bd
00000240: e82d 1ebc 17e0 943d 4cf2 81bd bb26 cebd
00000250: 55ea ae3c 5647 88bd 63a7 10bd c96b 88ba
00000260: 6748 55bd e24c 513a 87d5 d4bc 4217 ebbc
00000270: dcc8 1e3d 5e8b ccbc 8acf 6fb9 6c0d 44bd
00000280: 8cfa a2bc 00c2 86bd 5320 b83c c1b7 103c
00000290: c54c 03bd 7c07 933c 58c5 42bd 4fc9 823d
000002a0: 8272 4dbd 16f6 aebc ea4b b1bc f6d7 593d
000002b0: 3e3c 783c 4d32 503d eebc 8c3d 574c e0ba
000002c0: 8848 8c3c ea9a 8bbd 7996 743b 2c66 52bd
000002d0: 4069 d0bc dd45 bd3a e9a5 64ba c3c6 043c
000002e0: 0b53 093d 8b6c e03c 3882 a5bc 592c 6fbd
000002f0: ff52 c8ba 9a1c aebc b3f3 75bd 5117 f5bc
00000300: cbc2 ab3d 2494 c5bb 77f1 76bd edda 7b3c
00000310: 259f 643d 20de 2b3c e51a ba3c daa7 3d3c
00000320: 7550 103d 1eaa 6cbd d8c9 f6bc 50f4 86bd
00000330: fe80 21ba 1f22 683d bf24 3abd 731e 73bd
00000340: edb4 d03c e148 b63c 319a 96ba b892 a0bb
00000350: c03f 06bd 33cd 083a 47b4 ef3c 72dc 41bd
00000360: 725b 72bd 132b 613d bd5f 83bc 013c 6c3d
00000370: 4aaa 7eb8 69a4 d83c 8bb7 6cbd 48bf 04bc
00000380: 57b7 f8bb 2ac6 813d cd3a 3b3d bfde 99bd
00000390: 9d60 9dbd 3ca7 2cbd 2599 9f3d 5295 133b
000003a0: 3a3f 9ebd a3a1 c0bd ad15 62bd 5117 e2bc
000003b0: 3850 2db8 8d90 d4bc 63f5 aabd 8860 7bbd
000003c0: efb6 4abb e081 05bd 03a9 bfbd a2c3 6b3b
000003d0: 5a41 313d 826a 6eb6 d27b 913d 2c8e 36bd
000003e0: 5bfc 353d acd0 413d 0eb1 8d3d 0448 88bd
000003f0: dd75 ccbc 605b c0bc ea96 66bd 1e38 283c
0.018043187 -0.0089402525 -0.0005590027 -0.016125018 4.2367806e-20 0.045141928 -0.0013004211 0.030893723
-0.03194355 1.6957163e-05 0.017782532 -0.032281622 0.0024121506 -3.5838013e-07 -0.013420074 -0.005181645
-0.011931669 -0.012730733 0.0006605458 -0.042864636 -0.018839566 0.0066327117 -0.020246914 -2.0612422e-06
-1.3195504e-08 0.124430016 0.07637833 0.016480118 0.0077697258 0.006817879 -9.188379e-06 -0.013514835
-0.051372282 -0.016435165 -0.008662933 -0.02614111 -0.0034635377 0.0034719307 0.009289042 -0.006433192
0.012885658 -0.021499477 0.02399686 -0.029688206 -0.028866826 0.00021182837 0.038697388 0.008778294
-0.02365441 -0.013322087 -0.0073029706 -0.0006393872 -0.0010275771 0.011779614 -0.006894447 0.032931495
-0.039898794 -0.017645625 -0.0020446752 -0.041819382 2.3440265e-31 0.008347274 -0.004489871 -0.008154433
0.030593209 0.0022180835 -0.066218615 8.4879226e-05 0.0005712728 -0.0061302017 0.051062252 0.0012051786
0.030425435 -0.04078297 -0.02365263 -0.014038472 1.4790937e-06 -0.015050961 -0.00017148475 -0.0026607388
0.0088631045 -0.011577859 -0.00015947814 -0.00036996207 -0.06791325 -0.012758118 0.04573981 0.06844609
-0.0063123205 -0.016207013 -0.014704276 0.00049184053 3.0939265e-17 1.5219646e-05 -0.0030076224 -0.00014111155
2.2310422e-18 -0.0135371545 -0.041209042 -0.0015267938 -0.019668123 -0.006570429 0.031345822 -0.018481644
-0.046473272 -0.052919514 -0.113895364 0.022065978 0.0009187508 -0.0070146676 0.06465066 0.030520242
-3.9820643e-05 0.051314685 -0.01775066 0.04252264 0.06028592 8.945267e-12 0.059704 0.013247579
-0.038877238 0.029726408 0.00886119 -0.0022789354 -0.03042005 -0.0101631135 0.04707974 -0.018167641
-0.058244847 -0.06669063 0.042687155 0.0179364 -1.3209943e-05 -0.0119330855 -0.03102574 0.023449928
-0.018114131 -0.019665545 0.02208876 -0.008862275 -0.060336977 -0.004031978 0.03483659 -0.044577237
-0.0096545 0.07269304 -0.063450426 -0.10065981 0.021351973 -0.06654231 -0.035315882 -0.0010408099
-0.052071 0.0007984174 -0.025980724 -0.028697614 0.038765773 -0.0249688 -0.0002287013 -0.047864363
-0.01989486 -0.06579971 0.02247635 0.008832873 -0.032055635 0.017947905 -0.047551483 0.06386053
-0.05015803 -0.021357577 -0.021642644 0.053184472 0.015151082 0.05082922 0.06871973 -0.0017112595
0.01712443 -0.06816657 0.0037321134 -0.05136697 -0.025440812 0.0014440377 -0.00087222323 0.008104029
0.03352646 0.027395507 -0.020203695 -0.058391903 -0.0015283524 -0.021253873 -0.060046863 -0.029918345
0.08386763 -0.0060296226 -0.060288873 0.01537202 0.055815835 0.01048997 0.022717902 0.011575663
0.03523298 -0.057779424 -0.030125543 -0.06589568 -0.0006160884 0.056673165 -0.0454452 -0.05935521
0.025476897 0.022251548 -0.0011490044 -0.0049003027 -0.03277564 0.00052185653 0.029260768 -0.047329374
-0.05916924 0.05497272 -0.016036863 0.05767441 -6.0716913e-05 0.026445584 -0.057792228 -0.008102246
-0.007590215 0.06336625 0.045710374 -0.075131886 -0.07684443 -0.042151675 0.07792882 0.0022519422
-0.07726903 -0.0940583 -0.055196453 -0.027599009 -4.1321124e-05 -0.025947833 -0.08347585 -0.061371356
-0.003093179 -0.03259456 -0.09358408 0.003597476 0.043275215 -3.552676e-06 0.07103695 -0.04456918
0.044430118 0.047318146 0.06918536 -0.06654361 -0.024958545 -0.023481071 -0.056296267 0.010267286

bias f4 [128]
00000000: d9ff b4bc 4dd8 25bd 2c82 c0bd e5e2 6e3d
00000010: 5962 5ab8 a013 4e3d 9e69 93bd ed71 a6bd
00000020: aaac c5bd 5b1c e4bc 3cd2 c53c 4273 8b3d
00000030: fee0 363d 818a 15bc 0f53 9abd c165 88bb
00000040: 3395 64bd 01a8 a2bc 8574 7f3b ad92 88bd
00000050: e636 24bd a06f 41bd 02f3 833d 810c 93bb
00000060: 85be 9fbd 4de9 c0bc 2ee5 073e 21ee 883c
00000070: 0b9d 68bd 595f 87bc 3216 04b9 9bca a23c
00000080: 4f34 cc3d 460b 1b3d b1c8 8f3d 1ed2 84bc
00000090: 9e1d 543c f9eb 813b 1f9b 9e3c b3c0 493d
000000a0: edfc a03d ae9d 4b3d f8dc 763d 1a66 6ebd
000000b0: f208 03bb 8c8b 59bd e59c a9bd a814 d9bc
000000c0: eaf0 503d 67da d1bd 651c d43c b43b 1ebd
000000d0: 6735 f0bc 27b8 183c 7084 963b 829b 7e3d
000000e0: 9dac b83b 93f2 3dbc bdd2 733d 3cb1 d73c
000000f0: b5f4 ddba 702c 5cbb 2107 2c3d 815b b3bd
00000100: 80a6 3a3d a5cc c3bd 4b07 213d 376e babd
00000110: 2499 0b3d 8c54 3cbd c3d9 77bd c688 b9bc
00000120: 17e9 863d 5054 c1bd 9d6c 8e3d b862 b5bd
00000130: b1f3 2cbb e054 243c 0efc 16bd a7a0 debc
00000140: eb1a 303d 7ed7 9d3b 4633 aabb d47d f53c
00000150: 0d4b 93bd 8fc6 9e3d 0f04 4cbd ef82 323d
00000160: fce7 b2bd f292 e43c 35c0 de3c c374 373d
00000170: 559b d0b9 7708 e7bc 63ac 64bc 3ccb 75bc
00000180: 0d8e a9bb a442 d83c 3f5f 32bd ed25 5abb
00000190: 7b87 c1bc f58f 2b3c 56c8 573c a378 763d
000001a0: 46e2 15bd ba58 c3bd 5063 5d3d f632 3b3d
000001b0: 890e 53bb 8f8d 0ebe af46 813c c63a 6a3d
000001c0: e3f5 28bc e919 b23d 48c1 283d ebfc 113d
000001d0: 9366 bc3a 6d95 f2b9 2238 953b be0e 50bd
000001e0: 2f6e c0bd 1068 283d 2631 e73c 599b 093d
000001f0: 25f1 81bc 1b26 0cbc a961 5d3c 7890 733d
-0.022094654 -0.040489484 -0.09399828 0.058321852 -5.2066844e-05 0.050311685 -0.07197879 -0.08127198
-0.09652074 -0.027845552 0.0241481 0.06809093 0.044648163 -0.00912726 -0.075353734 -0.0041625206
-0.05580635 -0.019855501 0.0038979363 -0.06668601 -0.040091418 -0.047225595 0.064428344 -0.0044875746
-0.078000106 -0.023548746 0.13271019 0.016715111 -0.056790393 -0.016524957 -0.0001259677 0.019872
0.099709146 0.037852548 0.07020701 -0.016213473 0.012946514 0.0039648977 0.019361077 0.049256038
0.07860742 0.049710922 0.060269326 -0.05820284 -0.0019994345 -0.053111598 -0.082818784 -0.026499107
0.051011004 -0.10246735 0.025892446 -0.038631156 -0.02932234 0.009321249 0.0045934245 0.062160023
0.0056358115 -0.011593479 0.059527148 0.02632963 -0.001693389 -0.0033595823 0.041998986 -0.08757687
0.045568943 -0.09560517 0.039313596 -0.09103053 0.034081593 -0.045979068 -0.060510408 -0.022648226
0.06587427 -0.094399095 0.0695431 -0.0885672 -0.0026390369 0.010030001 -0.03686147 -0.027176214
0.04299442 0.0048169484 -0.0051941006 0.029967226 -0.07192049 0.07752716 -0.049808558 0.0435819
-0.08735654 0.0279021 0.02719126 0.044789087 -0.00039788583 -0.028202279 -0.013957116 -0.015002068
-0.0051744045 0.026398964 -0.043547865 -0.0033286766 -0.023624172 0.010471334 0.013170322 0.060173642
-0.036592744 -0.095384076 0.05404979 0.045702897 -0.0032204709 -0.13921188 0.015780775 0.057184957
-0.01031253 0.08696348 0.041199952 0.035641592 0.0014373831 -0.00046269168 0.0045538107 -0.05079531
-0.09396016 0.041114867 0.028221678 0.033595417 -0.015862057 -0.008554007 0.0135120535 0.059463948

weight f4 [128, 128]
00000000: 4a57 823b 52dc 98bc 1b9b c8bb 381b 6cbd
00000010: 4516 7abb 54c2 353b 609e 9f2b 4e70 8d3c
00000020: 28be f5bc 85db 47b4 d4c7 1ab8 b37e 453c
00000030: 4def da3c 805c 083d 3789 e73c db1c 9abc
00000040: 0289 f83c d4a0 313d 1019 83bd 9064 ed3b
00000050: d2be 823c 749b 75ba 9112 b2ba 3fa7 7ebc
00000060: fec1 b0bd e94a b9bc 65e3 2cbd 0fe8 18bd
00000070: d6e3 8fbd a057 5b3d faf1 2a3d 0301 96bd
00000080: 5f42 b4bd 37ca 30bd 5b04 8fba 2756 c5b9
00000090: 23ab b03c 3f43 53bd 27f3 d03c 72ff 23bd
000000a0: 4e0e f6bb b112 013c d37f 233d dc04 9c3a
000000b0: 7ccb 93b6 418c 333d f92a acbb 5d0f 0b3c
000000c0: 14ec 95ba 9713 9137 b837 c938 c5aa 6d3d
000000d0: 621c 82bd 2457 a5bd 15dc 923c 6e28 1abc
000000e0: b1a2 f0ba f8c2 953c 084e 22b7 27b8 42bd
000000f0: 246c 4cbd b2c1 03bd 4a93 27bc 4256 02bd
00000100: d29a 7abb cc3b 97a2 88a7 a43a da49 3b3b
00000110: 8791 6a3c 63f0 003b 156c 89bc 54a3 143c
00000120: abf6 88bc c077 08b8 ae67 693c 733e dd3c
00000130: 9f4d 113d b80e c035 9234 113c c2b1 0abc
00000140: d1a9 99bd 68ec d5bc c047 2b0c 6b13 2486
00000150: 3791 193c 837b 17ba 5b07 9ebd e69d 7fbc
00000160: ddff 2131 f958 0b3d edf0 c63a 5209 e83c
00000170: 16d2 1406 0e4f 3fb6 d3e3 2d3b ad0a 1dbd
00000180: af1a 6dbd a36b f63b 5baa b93c 35bd 6a39
00000190: bb0f 0e3d f954 0d39 f23e 5b3d fe81 afbd
000001a0: 06b5 6bbd 3810 fb3a f72f f3b7 b84d 723c
000001b0: 4eac 9ebc e6b7 233d 40b9 43bd a1a4 01b9
000001c0: 3fea 35bc 836e e93c 1007 46ba 0474 80ba
000001d0: a8fe 0fba e737 963c a02b e83b 299e 18bc
000001e0: 182f ea3b 6940 5dbc 01e5 abbb cc3f c63b
000001f0: bc76 acaa 0ea1 81bd 891c 603d 12f0 a3bc
00000200: e8a9 563d d8d5 6bbd d06b d4bc 8c4a a3bd
00000210: 55dc a5bd 1b81 b3bc 100a 3e32 0283 3b3d
00000220: 11d0 503d fe92 9137 ab9f b03a 5b99 e4bc
00000230: 6bc6 59bd e20e cdbc 538c d7bc 4009 3d3d
00000240: 2169 40bd e2a8 12bd a2cb 803d 9d9c 2abd
00000250: bb64 3abc e60b 09bd f225 093d e9f8 a93c
00000260: 7620 533d 92b0 93bc 89f8 c73d 4296 bf3c
00000270: e351 99bd af3b 993c ec0d 57bd 7aac 8d3c
00000280: b7a6 e7bc 6d80 5a3d 4e17 14bc bd9f 093d
00000290: 3f26 603d a185 03bd 31e3 653c 3d9e b6bc
000002a0: 5899 ed3c c4e5 e23c 5aa6 443d 6f01 97bc
000002b0: c710 32bd 4b95 ec3c fc4b 903d 7217 b7bc
000002c0: 4d6e 09bd 80aa 97bc 95b7 8fbd f836 d13c
000002d0: 74af c4bd e9e0 d53c 5be9 00bc b070 a6bc
000002e0: 3e84 1fbd 7869 8bba 7553 833c 5963 f83c
000002f0: 57b9 29bd 02d7 7b3c 691c 38bd 3a84 9e3c
00000300: 3bdf cbbd b08c d6b3 e016 433c 88bb 49bd
00000310: bf9f 36bd e391 a93b cbd1 fe3c e888 3bbd
00000320: 5e6e 073d c801 d437 f872 abbd 8e79 cebc
00000330: af27 af3d 39ac 363a c8f0 b4bd be08 763d
00000340: e37d 52bd 4ada 313d f425 090a 7211 258c
00000350: 768a 563d 04f7 bcbd 4e02 c4bd 4481 93bd
00000360: 2a5c 67b0 e55a 973d 8ef2 b53c b589 19bd
00000370: ca5e 0080 0b60 82b8 4689 fcbb 7e06 29bc
00000380: 1f2c e83c c869 8dbb a979 c13d a7de 65bd
00000390: 3594 4dbd 01fb 65bb a2db 863d 3cbf acbb
000003a0: 0950 adbd 76ad 0cbd df13 29ba 9f63 273d
000003b0: dd78 51bc 6676 84bd 2a28 103d 7cf3 4a3d
000003c0: 3a8b 75bc cb66 48bd 24d8 03bc 5ce1 4a3d
000003d0: 54fd b9ba 59a3 82bd 06fc b1bb 98cf 893c
000003e0: 1bc2 9bbc cada 623d a84d 3e3d 5942 b13c
000003f0: a313 2600 61fa 183b 224a 393d 06f7 99ba
0.003977691 -0.018659744 -0.0061220056 -0.057643145 -0.0038160246 0.0027734237 1.1341587e-12 0.017265465
-0.0299979 -1.861318e-07 -3.6902566e-05 0.012054133 0.026725436 0.03329134 0.028263671 -0.018812587
0.030338768 0.04336627 -0.06401265 0.007244654 0.01596013 -0.00093691726 -0.0013585855 -0.015542804
-0.08630751 -0.022618728 -0.042209048 -0.037330683 -0.07025878 0.053550363 0.041734673 -0.07324412
-0.08801722 -0.043161597 -0.0010911332 -0.00037638957 0.02156598 -0.051577803 0.02550657 -0.040038534
-0.0075090295 0.007877992 0.039916825 0.0011903304 -4.40463e-06 0.04383493 -0.005254146 0.00848755
-0.0011438155 1.729447e-05 9.594805e-05 0.058024187 -0.0635307 -0.080732614 0.017927209 -0.009409053
-0.0018359033 0.018281445 -9.6741205e-06 -0.047538903 -0.04990782 -0.032167144 -0.010227988 -0.031820543
-0.0038239253 -4.0991944e-18 0.0012562135 0.0028577955 0.014316923 0.0019674532 -0.01677517 0.009072144
-0.016719183 -3.2536453e-05 0.014245911 0.027007317 0.035474416 1.4309398e-06 0.008862631 -0.008465232
-0.07503093 -0.026113704 1.3194952e-31 -3.0859238e-35 0.009373001 -0.00057785976 -0.07716247 -0.015601611
2.3574025e-09 0.034020398 0.0015178003 0.028324757 2.7990053e-35 -2.8507234e-06 0.00265335 -0.03834026
-0.057886776 0.0075201555 0.02266424 0.00022386464 0.03468297 0.00013478463 0.053526826 -0.08569716
-0.057545684 0.0019154614 -2.8990193e-05 0.014789037 -0.01936927 0.0399703 -0.04778409 -0.00012363728
-0.011103212 0.028495079 -0.0007554153 -0.00098002 -0.0005492964 0.018337203 0.0070852786 -0.009315052
0.0071467273 -0.013504126 -0.0052458053 0.0060500856 -3.0635726e-13 -0.06329547 0.054714713 -0.020011935
0.05240813 -0.057576984 -0.025930315 -0.07973203 -0.080986656 -0.021912148 1.10617435e-08 0.045779236
0.050979678 1.7353796e-05 0.0013475319 -0.027905157 -0.05316774 -0.02503151 -0.026312029 0.0461514
-0.04697526 -0.03580559 0.0628884 -0.041653264 -0.011376555 -0.033458613 0.033483453 0.020748572
0.05154463 -0.018028531 0.09764201 0.023387078 -0.07486322 0.018705217 -0.05250351 0.017294157
-0.028277738 0.053345133 -0.009038759 0.033599604 0.054723974 -0.03210986 0.014031217 -0.02229225
0.029003784 0.027697451 0.048010208 -0.0184333 -0.04347303 0.028879782 0.07045743 -0.022350047
-0.033552457 -0.018513918 -0.07017437 0.025538906 -0.096037775 0.026108222 -0.007868136 -0.020317405
-0.038944475 -0.001063629 0.016031006 0.03032081 -0.04143652 0.015371086 -0.04494897 0.01935016
-0.09954687 -9.9907425e-08 0.011907309 -0.04925111 -0.04458594 0.0051748618 0.031105896 -0.04578486
0.03306424 2.5273199e-05 -0.08371538 -0.025204446 0.08552491 0.0006968412 -0.08834988 0.06006693
-0.051389586 0.043421067 6.603448e-33 -1.2716387e-31 0.05237814 -0.09226802 -0.09570752 -0.0720239
-8.4168283e-10 0.07390384 0.022210386 -0.037484843 -3.4004e-41 -6.2167725e-05 -0.007706794 -0.010316489
0.028341351 -0.0043155886 0.09447033 -0.05612054 -0.05019017 -0.0035092237 0.065848604 -0.0052718204
-0.08462531 -0.034345113 -0.00064497994 0.04086649 -0.012785164 -0.06467895 0.035194553 0.04954861
-0.0149868075 -0.048926156 -0.008047137 0.049531326 -0.0014189878 -0.06378812 -0.005431655 0.016822621
-0.019013455 0.055384435 0.046460778 0.021638082 3.496793e-39 0.0023342597 0.045236714 -0.0011746592

bias f4 [128]
00000000: aa04 053d 4c74 00bd ce61 453d 4f4d ffbc
00000010: 3884 773d 25ec 363d 1869 ddb6 a355 6e3d
00000020: 21d0 053d 3980 86bb dcb1 2cbc ba53 313e
00000030: 488e 8b3c 7f66 b7bc 2fa9 6c3d e6f2 203b
00000040: c6a3 38bd e9e5 0abd ecfe 013d ac12 3dbd
00000050: 71a7 e3bc c4f9 053e a754 7b3a f524 dabc
00000060: 999f 1bbd 86c9 413d b491 4abd 9834 7cbd
00000070: 2bac 9a3d 03ae 7c3d 5fbb c3bc 8199 90bd
00000080: d5d2 b73c cf9b 4dbd d43b 7fbd 473f 43bc
00000090: 77bf 96bd 5c65 143d 033d 83bc fc31 083b
000000a0: 9042 233b 02d2 e8bc 0942 cc3c d20e 37bd
000000b0: 6dd2 98bd 3fd9 823d 7c51 82bc 2977 cdb9
000000c0: cab6 393b 9ddf 4dbc 1a1e 373b 8a8e 38bc
000000d0: 6c83 0fbd 78fe 10bc c047 95bb 861b 0b3d
000000e0: 305b 933b e6c4 903d c45c e8bc 2296 fb3c
000000f0: 27e8 aabd 1ef1 00bd 9770 203c 417c bc3c
00000100: 75e2 b8bd b44c 6cbc 9d03 99bd 97de 6d3c
00000110: a800 383d a45c ae3d db7c 5d3c cb60 62bd
00000120: 1c28 afbd 7bd2 43bb 3bb6 bf3c 578f 10bd
00000130: 9dab 5c3a 29b9 15bd 6732 0dbd 2806 d63d
00000140: 44d3 59bd 49b9 bebd f734 5dac 2d1f 82b8
00000150: 0a6a 113d ffbb a5bd fa0b 353d 35b9 41bd
00000160: 35e1 80b9 ce52 d1bc cdfd a53d e83b f5bb
00000170: 6a7e 35b1 5c44 74ba 635b 5e3d df7d 53bd
00000180: b6f7 8ebd acbf 4f3d a452 94bc 36b3 e03c
00000190: 8a1a 943c 972e 53bb 18ce d1bd 9c9d 11bd
000001a0: e6e4 fbbc f4c5 c3bd 49ae 85bb 3fda 84bd
000001b0: 0259 a43c 0130 023d 331e cb3b e76e 76bc
000001c0: dd39 73bd 7efb 92bc 5a9b 1dbd b341 a0bc
000001d0: 163e 183d 25d8 45bd 8438 6a3b 3d5b e1bc
000001e0: ef37 6dbd 6a01 85bd 50bb b4bd 9a98 54bc
000001f0: 8365 bcba d950 703d 92ad e5bb ce86 36bd
0.03247515 -0.03136091 0.048188977 -0.031164793 0.060428828 0.0446588 -6.5985478e-06 0.05818714
0.03266919 -0.004104641 -0.010540452 0.17317095 0.017035618 -0.022387741 0.057778534 0.0024558841
-0.04507806 -0.033910666 0.031737253 -0.046160385 -0.027789803 0.1308356 0.00095875043 -0.02662895
-0.037994 0.04731133 -0.04945536 -0.061573595 0.0755237 0.061689388 -0.023893056 -0.070605285
0.0224394 -0.05019742 -0.062312916 -0.011916942 -0.07360738 0.036229476 -0.016020304 0.0020781746
0.00249115 -0.028420452 0.024933832 -0.044691868 -0.074620105 0.06389093 -0.015907995 -0.00039189428
0.002833771 -0.012565521 0.0027941526 -0.011264453 -0.035037443 -0.008849733 -0.0045556724 0.033961795
0.0044969544 0.070688054 -0.028364547 0.030711237 -0.08345061 -0.031479947 0.0097924685 0.023008468
-0.09027568 -0.014422584 -0.07471392 0.014518402 0.0449225 0.085137635 0.013518537 -0.05526809
-0.08552572 -0.0029880095 0.023402324 -0.03529295 0.00084179064 -0.036553536 -0.034471896 0.10450393
-0.053179994 -0.09312684 -3.143539e-12 -6.20469e-05 0.035501517 -0.08092498 0.044200875 -0.047295768
-0.00024581855 -0.02555218 0.08105049 -0.007483948 -2.6410825e-09 -0.00093180477 0.054286372 -0.051633712
-0.06980841 0.050719902 -0.018105812 0.027429204 0.018079061 -0.0032223815 -0.102443874 -0.0355507
-0.030748796 -0.09559241 -0.0040796143 -0.0648694 0.020061973 0.03178406 0.0061986684 -0.01504109
-0.059381355 -0.017942186 -0.038478233 -0.019562578 0.037168585 -0.048301835 0.0035739252 -0.027509326
-0.05791467 -0.0649441 -0.088247895 -0.012975836 -0.0014373515 0.058670852 -0.0070092166 -0.044562154

weight f4 [128, 256]
00000000: 53c9 c53a b91a e0b9 60b7 5fbb e215 acbb
00000010: 2c16 293d 4d6e 8a3c ec43 553c b5dd 6eba
00000020: c42d 4a39 5da7 2bbd e9b3 da3c b2e4 d5ba
00000030: 9110 743a f5cc 94bc c707 233b c172 9fbb
00000040: aee0 ea39 7674 b53c 3897 1b3c 3312 983b
00000050: a61f a1bc e588 9dbb 80eb 43bb a8b8 9bba
00000060: 6e7e 8a3a 923a 2dbb 9f15 923a a0f1 9c3c
00000070: 934a d0bb c1d8 42b9 93bd 333d eb0a e8b6
00000080: db8f 0d3d fc25 3a1c d6a7 c6ba 3440 973b
00000090: 6cbf 60bc 0903 3ca8 09a4 443a a71a e0bc
000000a0: c3aa 09a3 0e8b 98bc 403a cfbc ff64 8cbc
000000b0: ebca a2bb 6cf7 aebc 834e 0093 52c2 56bb
000000c0: a765 3e00 1e01 033d 9868 efbb 409e 313c
000000d0: 0224 01b8 4cf9 acbc ceff 283c a539 6c3b
000000e0: d5d0 48bb 1a8c 0e3d 70cc 67bd a6df fcb2
000000f0: e0af b233 37fc 48bc 0f76 59bc aaaf e53c
00000100: 4f3a 46b2 0fdf bd39 6e21 aa88 f09f 6dbb
00000110: e91a 4d3c 4cff 22bd dff7 90bc 5468 dbbc
00000120: ad86 44bd d69e 0dbd 8cb1 353a 3b2a 0e3a
00000130: 9197 b0b7 d718 33bc 6a2b 6eba 7ec4 85bb
00000140: ca85 bcbc 69c1 2cbc 6c39 f5b7 e519 0dbc
00000150: 72d5 bcbc 60e8 57bc a5f8 513b 9de3 54bc
00000160: b22a 09bd 2251 a73b 3606 9a2d 48e3 193c
00000170: 89d9 a63c 8c5c 6abb 440e 623d 643f 78bc
00000180: 6f7e 18b8 c216 38bc bc1a 34bd 6f0b 273c
00000190: 5d55 8cbd 4b09 5bb6 7904 13bc e194 8b3c
000001a0: 1b81 67bc b8fc 273b 5f1d 9b39 9020 a4bc
000001b0: eee9 99bc 6415 b8b3 3931 c53c d584 4cbd
000001c0: 7ad1 c8bc 3675 0abd 1f0c cd3c e42a 8a3c
000001d0: ecc1 ba3c 9e60 56bc 4fd5 08b8 5bf2 913d
000001e0: 09d5 93b9 6af5 5ebc 6be6 13bd dd9a 5133
000001f0: 2f6e ac3d 19b9 c6bb 93a6 56bd d099 5e39
00000200: b905 688e b436 48bc c2eb e5b8 9b43 4435
00000210: 8113 bdbb 01e0 b43a 9695 ee3a 846b d3b2
00000220: 0170 62b7 ea39 d6ba 3091 96bb 728b 49b9
00000230: a4de 13b9 ea71 523d 366b cfb8 8b71 d0bc
00000240: d1d9 e93b d69b b0bc 6150 493b d1c6 463c
00000250: 7081 75bb 8d5b e838 a542 ad3c 0cb6 3bbd
00000260: b031 b8bc 8e0f 5739 cc78 a23b e6de 48ba
00000270: 20e1 6bba 7cfc 06b9 1f3c 883b 71e1 f3b9
00000280: 7917 95ba b8ae f83b 95f4 cdbb 0731 dfbb
00000290: aac2 a13c f6a1 9abc 5d09 cdba 0f9f d53b
000002a0: 12f5 a43c e6bd 51b9 c18d 23ba d1dd e53a
000002b0: fa77 2e3d bbb0 e639 f111 d33c 4fda 343d
000002c0: 129e b5bc 5973 4ebd 3abe 803a 48b4 0db7
000002d0: ce92 7b36 1c9c 91ba b36a 0b3b 4fd4 1fbd
000002e0: b9ec febc ec62 74bc 2101 963b 8ad8 be3a
000002f0: 3ab7 c9bc 61f4 bdbb 4966 5abc 9319 ddbb
00000300: 04ab ca39 2d6f 97ba d827 c8bc 3baf d1ba
00000310: 738a c2bc 5259 bcbc 3023 2fbd ef64 c43c
00000320: 689b 60bb d4cd b8bb 7c5b 09bc 9863 12bb
00000330: cdf3 013a 23e4 0cbd 4925 57bc 4089 5938
00000340: 79d0 3dbc ada2 d739 9585 6fbc 4402 84b9
00000350: 1198 15bd b825 f5bb bdf7 04bc 295e c9bc
00000360: 10d5 a2ab 52c1 a03b 1407 15bc 2eb0 2fbc
00000370: 2376 14bb 07a0 b436 e404 1bb7 739a ccbb
00000380: 122e d9bc c0db 7bbc 1d35 ffbc 579b f639
00000390: f506 b53b 1192 03bd 55ed 323c 7c7d 08bb
000003a0: 0dd7 7aba 4e27 dab9 b4c9 183b 9ceb 5eba
000003b0: 19ac 73b9 faa3 c038 3d15 953b 4ee2 713b
000003c0: 950d 94bb 315e 333d 4b49 393d 74cf cdbc
000003d0: 93aa bf3b ce47 64bb f4ff a838 3335 ec3b
000003e0: e48a 313c c825 27bc 4251 2a3a 453f 55bb
000003f0: 2806 7abc b139 bdbb 8cc5 9fbb 7f1f 8fb9
0.0015089907 -0.0004274452 -0.00341364 -0.005251632 0.04128091 0.016898299 0.013016682 -0.00091120164
0.0001928127 -0.041907657 0.026697116 -0.0016318767 0.000931033 -0.018164137 0.0024876462 -0.0048659747
0.00044799357 0.02215026 0.009496503 0.0046408414 -0.019668411 -0.004807579 -0.0029895008 -0.0011880593
0.0010566243 -0.0026432616 0.001114536 0.019158185 -0.006356546 -0.00018582029 0.043881964 -6.91541e-06
0.03456102 6.159133e-22 -0.001515622 0.004615808 -0.0137175135 -1.04367546e-14 0.000750125 -0.027356459
-7.462945e-18 -0.018620994 -0.02529633 -0.017138002 -0.0049680374 -0.021358214 -1.619458e-27 -0.0032769633
5.730267e-39 0.031983487 -0.0073061697 0.010840952 -3.078953e-05 -0.021114968 0.010314895 0.00360451
-0.0030642052 0.03480158 -0.05659145 -2.9438365e-08 8.3207624e-08 -0.012267164 -0.013272776 0.028037865
-1.1538375e-08 0.0003621508 -1.0239362e-33 -0.003625866 0.012518623 -0.03979425 -0.01769632 -0.026783146
-0.04798 -0.034575306 0.00069310586 0.0005423163 -2.1051414e-05 -0.010931215 -0.00090854487 -0.0040822616
-0.023013014 -0.010544159 -2.9233015e-05 -0.008612131 -0.023050997 -0.013177961 0.0032039073 -0.01299372
-0.033487983 0.0051061073 1.7510531e-11 0.009392567 0.0203674 -0.0035760729 0.055189386 -0.015151832
-3.6357374e-05 -0.011235895 -0.04397081 0.010195597 -0.06852219 -3.2638952e-06 -0.008973234 0.017038764
-0.014129902 0.002563281 0.00029585787 -0.020035058 -0.018788304 -8.5720586e-08 0.024071323 -0.049931366
-0.024513949 -0.033803187 0.025030194 0.016866155 0.022797547 -0.013084559 -3.2623586e-05 0.07126304
-0.00028196748 -0.013608316 -0.036108416 4.8802452e-08 0.08419453 -0.006064546 -0.05240495 0.0002122887
-2.8598963e-30 -0.0122200735 -0.00010963484 7.311407e-07 -0.0057701473 0.0013799669 0.0018202539 -2.4612525e-08
-1.3496728e-05 -0.0016344164 -0.0045949444 -0.00019220801 -0.00014101953 0.05137817 -9.890499e-05 -0.025444767
0.0071365614 -0.021558683 0.0030718076 0.012132362 -0.0037461184 0.00011079675 0.021149943 -0.04582791
-0.02248463 0.00020509792 0.0049582478 -0.0007662609 -0.0008998085 -0.00012873294 0.0041575576 -0.0004651654
-0.0011374793 0.0075891875 -0.00628526 -0.0068112644 0.019746143 -0.018876057 -0.0015643049 0.0065192054
0.02013639 -0.00020002536 -0.00062390795 0.001753742 0.042594887 0.00044000693 0.025765391 0.044153508
-0.0221701 -0.050402973 0.0009822317 -8.44623e-06 3.7487366e-06 -0.0011109146 0.0021273314 -0.039020833
-0.031118738 -0.014916163 0.0045777713 0.0014560383 -0.024623502 -0.0057969545 -0.013330051 -0.0067474335
0.0003865586 -0.0011553519 -0.024433061 -0.0015997657 -0.023747658 -0.02299181 -0.042758167 0.02397391
-0.0034272317 -0.005639771 -0.008383628 -0.0022337195 0.00049572886 -0.034397256 -0.013131448 5.1864656e-05
-0.011585348 0.00041129199 -0.014619251 -0.0002517869 -0.036521975 -0.007481303 -0.008115706 -0.024581032
-1.1569929e-12 0.004905858 -0.009095926 -0.010723157 -0.0022653423 5.3830477e-06 -9.239859e-06 -0.0062439977
-0.026511226 -0.015372217 -0.031153256 0.00047036514 0.005524511 -0.03212172 0.010920842 -0.0020826748
-0.0009568788 -0.00041609484 0.0023313584 -0.00085037365 -0.00023238397 9.1858165e-05 0.004549651 0.003690857
-0.0045182207 0.043791 0.045235913 -0.025123335 0.0058491915 -0.0034832838 8.058539e-05 0.0072084903
0.010836337 -0.010201879 0.0006497094 -0.0032538932 -0.015260257 -0.0057746996 -0.0048758443 -0.00027298552

bias f4 [256]
00000000: 2baf 103d f74f 85b9 a892 d1b9 3d7c 003d
00000010: be17 79ba 6fd8 813b 84c3 173e 9bbd a03c
00000020: 260b 44bc d9a1 67bc 7099 46bb 31dc a83b
00000030: 70d7 46bd cac2 353c 4e43 4dbd 7e79 df3c
00000040: 88b0 0cbd 5025 9cbd 0722 ee3c cce5 683d
00000050: 48ca 62bd 7471 bb3c 6550 953b d6d6 d4bb
00000060: 4789 49ba 0b10 caba 97bb 11ba a90c 99bd
00000070: cb5b 8ab8 5012 29bc 8869 60bd b4f5 e9bc
00000080: d8d7 ce3a c1f6 4abd a0cc 8cbd 6fcf d93a
00000090: 714e 82bd 7b51 d4b9 d08c 24bd 4335 573a
000000a0: bda4 3abd 5021 12ba f091 d9bc 75d5 90b9
000000b0: bba6 6ebc a479 f83c 9c1f 64b8 d4d5 9c3c
000000c0: 6777 92b8 6968 93bc 56a5 20bd 4db6 50bd
000000d0: f32e 623a 8d84 41bd f44d f23c 25c0 89ba
000000e0: eec2 8ebd 08d3 4bbb ea6b 1dbd 4aa9 6bbd
000000f0: 193b 23bd 5e0b e13c d51f e13c 2386 ecbc
00000100: 6650 39ba 1010 54bd 5969 5abb 6fd1 c6b9
00000110: 3ca5 0abd 86cb 59bd 477b a1b9 b783 d1bd
00000120: 8640 17ba 20ed adbc 88c6 04bd 5c10 35bd
00000130: 0621 0fbd 037e 123d 5907 d2bc f7b5 8cbd
00000140: 857a 0dbd 56c3 fd3c a34e 28b9 8a4a 6e3c
00000150: 7d44 5ebd 8e0b e9ba f997 b23c 1986 193d
00000160: 28cd 0eba 7bdc 0cbd 08ff 38bd 6694 adb9
00000170: 96d2 70bd 7def 553c d438 97ba b4a8 903c
00000180: a142 2cbb ba48 15bd 225c 1f3c bc9b c5bb
00000190: 4e4f 99bc 81d2 7fbd a306 7bbd 1a92 293d
000001a0: 1247 8cbd cadc 72bd 329d 38bd 9eec 363d
000001b0: a91d 0ebd 2ee7 fcbc c067 0e3c e200 86bc
000001c0: 87fc 11bd 541e 19bd 00e6 30bd fcee 9e3c
000001d0: 31a4 a73c 6a78 7b3c 738c 13bc 56ab 97bb
000001e0: c229 f5b9 2e47 26bd d002 03ba d733 bebc
000001f0: 18c3 a93b d3e4 283c 1b6b 3fbc 7c00 96bc
00000200: e870 55bc 480c 0dbd ea62 4cbd 32ee a7bb
00000210: ea31 79bd 5742 d0bb 7b86 2bbc a192 ccbb
00000220: d061 b13a 7865 83bc 0cbd ff3a 8951 33bd
00000230: 7e8f 42bb 20ff 323b 4028 d5ba 9385 153d
00000240: 67da d3bc 6f94 c8bc 5626 1cbc b572 89bd
00000250: 8fea 78ba 5f1d 30bd 20ef 1c3d d834 e6bc
00000260: cf90 643b 315b 2a3d 9c5a f03c c395 7ebd
00000270: 6cca 933b 9cce c93b 18fd 52bd ab29 65bd
00000280: 7ae7 893a dd66 5abd 616a 3ebc 7f8a 97bd
00000290: bf0a 15bc 892a 31bd 5212 78bd 7b5e eabb
000002a0: 21b4 9fbc fbb4 35bb fbf8 b53b c807 d3bc
000002b0: 2099 67bd 878c 0dbd 0ecf 1abd 40c0 88b9
000002c0: e2a6 0e3d fe9a 56ba 474d aeb9 ed26 64bd
000002d0: 23e9 48bd dca6 8dbd bbe3 92bd b352 25bd
000002e0: 5431 5cbd bacf b2bd 99e4 063d ce39 823c
000002f0: aec8 ab3d f243 afb9 91b7 b5bb 2808 40bd
00000300: c139 efbc 4fcf 953c a0ce a9b9 ef50 bb3c
00000310: 8ab9 9abc 992b dc3a f234 e1bc 0277 babd
00000320: 6644 eab8 956f 1a3d 01e9 3cbc 882a 5bbd
00000330: cda8 a7b9 f8bd 183d e2fa 333d 3e8a 0bba
00000340: fcf7 0c39 37d7 0e3c e8a2 233d b1df 17bd
00000350: 2d49 58bb 2f7e 39bd 409b aa3c 6c93 d236
00000360: 4278 00ba 3d2e 053d de51 41bc 9b29 2ab9
00000370: 51a5 153c bb4b f1bc a63e 13ba a457 c83b
00000380: 7cff 11bc 91be 1dbd 5fde b8b9 d607 2bbd
00000390: d568 b63c 74cb a23c 2cac 1239 a48d 873c
000003a0: bef4 a6bc 2fd4 d33c c9f0 9d3b 3d00 81bc
000003b0: 3823 1e3c b6b0 0fbd ffbc e83c fc28 2dbd
000003c0: 0f98 183c 0d39 91bb f0f7 46bd 7eb4 863c
000003d0: 9bbb 47bc 080a 5eba c5c6 5abd 4034 2e3d
000003e0: 8c75 51bd fb66 fbbb 7d3c 14ba c964 083c
000003f0: 152b e73c 1504 5abd 2f79 13bd 31b4 d3bb
0.035323303 -0.00025427315 -0.00039972854 0.031368483 -0.0009502134 0.0039625685 0.14820677 0.019621661
-0.011965549 -0.014137709 -0.0030303858 0.005153202 -0.0485453 0.011093805 -0.050113015 0.027279612
-0.03434804 -0.07624304 0.02906896 0.056859776 -0.05536869 0.022881247 0.004556703 -0.006495337
-0.00076879974 -0.0015416158 -0.0005559264 -0.07473118 -6.5974506e-05 -0.010319307 -0.054788142 -0.028559543
0.0015780879 -0.04955173 -0.068749666 0.0016617606 -0.06362618 -0.000404965 -0.04017335 0.0008209536
-0.045567263 -0.0005574422 -0.026558846 -0.00027624858 -0.014566119 0.03033144 -5.4388875e-05 0.01914493
-6.984063e-05 -0.017994123 -0.039220177 -0.050955106 0.0008628212 -0.04724555 0.029578187 -0.0010509534
-0.06970774 -0.0031101126 -0.038432993 -0.057534494 -0.03985128 0.02747124 0.027480999 -0.028872555
-0.000706917 -0.05177313 -0.0033326952 -0.00037921543 -0.033848986 -0.05317261 -0.00030800162 -0.10230201
-0.00057698076 -0.021231234 -0.032415897 -0.044205055 -0.034943603 0.035764705 -0.02563827 -0.068706445
-0.03454067 0.030976932 -0.00016051023 0.014544139 -0.054264534 -0.0017779933 0.021800982 0.0374814
-0.0005447441 -0.034389954 -0.04516509 -0.00033107697 -0.05879458 0.013057587 -0.0011537322 0.017658569
-0.002628483 -0.03644631 0.009726556 -0.006030528 -0.018714573 -0.06245661 -0.061285626 0.0413991
-0.06849493 -0.059292592 -0.045071788 0.04465925 -0.034696255 -0.030871954 0.008691728 -0.016357843
-0.03564122 -0.03738244 -0.043188095 0.019401066 0.020464035 0.015348533 -0.009005654 -0.004628579
-0.00046761153 -0.040595226 -0.00049976725 -0.023218079 0.0051807277 0.010308462 -0.011683251 -0.018310778
-0.013027407 -0.03443554 -0.04989902 -0.0051248306 -0.060838617 -0.0063555646 -0.010469074 -0.0062430655
0.0013533179 -0.016039595 0.0019511296 -0.04377893 -0.0029687579 0.002731271 -0.0016262606 0.03650434
-0.025860978 -0.024484841 -0.009530624 -0.06711332 -0.0009495401 -0.04299676 0.038313985 -0.02810137
0.0034876352 0.041590873 0.02934008 -0.062154543 0.0045102146 0.006158663 -0.0515109 -0.05594794
0.0010521256 -0.053320754 -0.011622042 -0.07399463 -0.0090968 -0.043253455 -0.060564347 -0.007152376
-0.019495072 -0.002772628 0.0055533624 -0.025760546 -0.056542516 -0.034557845 -0.03779512 -0.0002608318
0.03482712 -0.0008186548 -0.00033245442 -0.055701185 -0.04905046 -0.069165915 -0.071723424 -0.04036207
-0.05375798 -0.08731027 0.03293285 0.015896704 0.08387886 -0.00033429224 -0.0055455645 -0.04688278
-0.029202344 0.018287329 -0.0003238814 0.02286574 -0.0188873 0.0016797661 -0.027491067 -0.0910473
-0.0001117073 0.03770407 -0.011530162 -0.053507358 -0.0003197849 0.037290543 0.043940432 -0.0005323029
0.00013443822 0.008718303 0.03995028 -0.037078563 -0.00330026 -0.045286354 0.020825982 6.27565e-06
-0.00049007323 0.0325148 -0.011799304 -0.00016227963 0.009133653 -0.029455056 -0.00056169403 0.006113963
-0.00891101 -0.038511816 -0.00035260894 -0.04175552 0.022266785 0.019872405 0.00013987784 0.016547032
-0.020380374 0.025858013 0.0048199636 -0.015747184 0.0096519515 -0.035080634 0.028410433 -0.042275414
0.009313597 -0.00443185 -0.048576295 0.016443487 -0.012190725 -0.00084701227 -0.053412218 0.0425303
-0.051137492 -0.0076721883 -0.00056547654 0.00832481 0.028218785 -0.05322655 -0.03600424 -0.0064606895

weight f4 [2, 33792]
00000000: da0a 1e3c 9203 813c 6695 d3ba 9239 153c
00000010: 9577 723a 521a abbb bd89 39bd a064 2c3c
00000020: 0740 b8bb 14c8 983c 8d2f 963c 24b1 1c3c
00000030: c13b 51bb ba5e 1cbb b65f 643c 00ba e6ba
00000040: 2b0b b5ba e0d8 783c 9264 563c 286a aebc
00000050: b8bc 093c 17df c23b c5fc 1b3c 2afa 253c
00000060: 55c4 1c3c afb7 b83c 8727 37bb f226 853c
00000070: 861c 3dbd 5a6f 12b9 0d26 9a3c fa3b 173a
00000080: fe2b 013e d295 603b 93dc f9ba 307b cdbb
00000090: 39a4 313c 8986 0027 eaf9 1c3c ba65 e73b
000000a0: 5444 3d3c 6115 663c 0839 41bb 660a 2b3c
000000b0: 6466 e83c 0971 7b3c 864f 8095 456a 823c
000000c0: 5693 bd0b 09cd ac3c f53b 513c 8e8a 33ba
000000d0: e865 633c f04e 643c 1280 5c3c 9f78 853c
000000e0: 346d 04b8 0a3d b03d 496a 873c f106 70b9
000000f0: e487 553c c8c7 03bd 9ca3 523c e1a4 313c
00000100: 4d2d 343c 003a 1739 5d34 8ab1 c18a 2b3c
00000110: 0c18 553c cff9 1e3c 7723 4c3c e3b4 60bd
00000120: 6955 273c 8f56 4e3c 3567 363c 29fb 7b39
00000130: 681b c539 a070 b53b 17a9 533c ebef 8c3b
00000140: 16a3 fe3b 4664 eebc 18c1 37b5 bca4 6a3c
00000150: 9f8e 873c 5945 7d3c 661c 803c 4b2f 8e3c
00000160: 86ad eb3b eeb1 7e3c ea9d 3935 68c0 ab3a
00000170: c834 143b 9d20 2abd 0bc6 213e d8c0 543c
00000180: 925c 4c39 9dc9 993b 8886 4f3c 732b cbba
00000190: 849b 683d e2db 963c b0aa 0dbc 7a65 c23b
000001a0: fad5 c139 4b3a 353c 6f6b 28b8 f4d4 4f3c
000001b0: e1b7 623c d014 cd3b fdf5 853c f538 61bd
000001c0: a341 3bbc 06ca a53b 7138 4f3c 48bc 193c
000001d0: 9dce d0bc 44e4 27bb cd18 03ba 1af9 293d
000001e0: 5741 5c3a b793 cc39 2e99 6eba 5c4e f439
000001f0: a5ce 433d 6c99 0b3c 1a78 463c 9c98 49ba
00000200: bdbc 4716 a228 e03a 84b4 2e39 729b 1737
00000210: d018 323c 1ff3 193b 2aed 323c 1f8d c238
00000220: 12d3 393c 4ea4 b7ba 3d06 913c 2e8a 953a
00000230: 65f8 923a 6a8b 8d3c e4ff 9439 3238 713c
00000240: 686f 1c3c d302 493c ab1e 58bb 8142 9c3a
00000250: dccb 443c 099a 723c 160c 03bd 3f85 013c
00000260: abf2 733c 0928 14bd 7214 dbbc 9c87 bc39
00000270: 42bf 9c3b 0e29 9b3c 538b 5c3c 6c50 343c
00000280: 27c6 ab39 fdc0 8bbd 3b39 e13b 10e9 793c
00000290: 182e 3a3c c327 273a df6d abba c762 f63b
000002a0: adfa 9a3d b4b2 1b3c afce 9eb9 2d0d a83b
000002b0: 9206 0fbd a314 1a3c 25d3 7b3c 73e7 773c
000002c0: a099 a8ba a1c4 cd3c 0070 c13b 7d37 213c
000002d0: 489c aa3a 9584 98ba eb02 a4ba 4118 cc3a
000002e0: efa5 5e3c bf91 25bd fa2b 233c a5f8 d93c
000002f0: 824f 2dbb d05e 2d3c 8824 833b 98d8 813c
00000300: 0dc3 3a3b 33f9 303c b32e 433c c392 483c
00000310: 97c8 803a 91c3 703c 7221 8b3c db14 cbbb
00000320: 96db a43c 066b 91bd 45ab 623c 7340 8eb9
00000330: 6419 f33b eaba 27bb bf7e 6e3c d8bf 323c
00000340: 7faa 4d3b 2ab0 e23b ecdd 38bd 9096 d638
00000350: 58e0 3d3b d508 113c 2b61 debc 9d22 3b3c
00000360: c4ea 94a9 bd17 433b 691a 423c 38f7 243c
00000370: f0b1 8bbb 2bda 1e3c cc7a d4bb d64f 9a3d
00000380: d165 983d 0eaa 8438 d56a 103c 5c8c 90b9
00000390: c5dd 223c b868 7e3c 52e8 693c 6e35 853c
000003a0: 7e70 683c 84f7 653c 7aaa 413b e7d6 923b
000003b0: f454 453a 1edb ab39 3609 403c 9dbe 86bb
000003c0: 72a1 583b b6b3 a7bb f2ce 7b3d 9e04 873c
000003d0: 12f7 873b 3c79 793c a08c e13b c443 5abd
000003e0: 7edf 92bb 36ca 833c a741 46bb 7926 823c
000003f0: 8c23 b8ba d709 5239 775a 383c f024 20ba
0.009646142 0.015748773 -0.0016142547 0.009107964 0.00092493865 -0.0052216435 -0.045297373 0.010522038
-0.005622867 0.018650092 0.01833322 0.009563718 -0.0031926485 -0.0023860172 0.013938835 -0.001760304
-0.0013812532 0.015188426 0.013085501 -0.021290854 0.00840681 0.0059470045 0.009520714 0.010130445
0.009568294 0.022548525 -0.0027947144 0.016253922 -0.04616978 -0.00013965127 0.018816972 0.000576913
0.12614438 0.0034268987 -0.0019062929 -0.0062707886 0.010842376 1.78365e-15 0.0095810685 0.0070616873
0.011551935 0.014043183 -0.0029483456 0.010439491 0.028369136 0.015346774 -5.1824254e-26 0.015919814
7.302184e-32 0.021093862 0.0127706425 -0.00068489544 0.013879277 0.013934836 0.013458269 0.016292868
-3.1572956e-05 0.08605392 0.016530173 -0.0002289077 0.013032887 -0.032172948 0.01285639 0.010842533
0.010997129 0.00014422089 -4.0222816e-09 0.010470093 0.0130062215 0.009703114 0.012459627 -0.054860007
0.010213234 0.012593879 0.011133005 0.0002403079 0.00037595187 0.0055371076 0.012918732 0.0043010614
0.007770906 -0.029100548 -6.84538e-07 0.014321502 0.0165475 0.015458428 0.015638541 0.017356535
0.0071923165 0.015545351 6.9147666e-07 0.0013103606 0.0022614468 -0.04153501 0.15798204 0.012985431
0.00019489441 0.0046932236 0.012666352 -0.001550062 0.056788936 0.018415395 -0.008646652 0.005932507
0.00036971254 0.011061261 -4.0154377e-05 0.012685049 0.013837785 0.0062585846 0.016352648 -0.05498596
-0.011429223 0.0050594835 0.012647734 0.009383269 -0.025489146 -0.0025618235 -0.0005000949 0.041497327
0.00084020704 0.00039019968 -0.0009101805 0.0004659769 0.047804493 0.008520465 0.012113595 -0.0007690282
1.6134647e-25 0.0017101953 0.0001666118 9.036494e-06 0.010870174 0.0023490859 0.010920802 9.276927e-05
0.011341827 -0.0014010759 0.01770317 0.0011408979 0.0011212943 0.017278392 0.00028419413 0.014722871
0.009548046 0.01226874 -0.0032977264 0.0011921675 0.0120114945 0.014807233 -0.031993948 0.0079053035
0.0148893995 -0.036170993 -0.026743148 0.0003595919 0.004783542 0.018940475 0.013460952 0.011005502
0.00032763297 -0.06823919 0.0068732775 0.01525332 0.011363529 0.00063764694 -0.0013079009 0.0075190994
0.07567344 0.009503055 -0.000302901 0.005128524 -0.034918375 0.009404334 0.015370165 0.015130865
-0.0012863167 0.025118174 0.005903244 0.00983989 0.0013016546 -0.0011636192 -0.0012513077 0.0015571193
0.013589366 -0.040422197 0.009959215 0.02660782 -0.0026445095 0.010581687 0.0040021576 0.01585035
0.0028497607 0.010801601 0.011912989 0.012242022 0.0009825405 0.014695064 0.016983721 -0.0061975545
0.020124238 -0.07100491 0.013834779 -0.0002713237 0.0074187983 -0.0025593587 0.014556586 0.010909997
0.0031382141 0.006917973 -0.045133516 0.0001023236 0.002897283 0.008852203 -0.027145943 0.011421827
-6.6132456e-14 0.0029768788 0.011847117 0.010068707 -0.004263155 0.00969557 -0.006484365 0.07534759
0.07441295 6.325926e-05 0.008814533 -0.00027570396 0.009940569 0.015527897 0.014276581 0.016260829
0.0141869765 0.014036063 0.0029551075 0.0044811848 0.00075276126 0.00032778917 0.011720946 -0.0041120783
0.0033055213 -0.0051178588 0.061476655 0.016481694 0.004149326 0.015226658 0.006883219 -0.053287283
-0.0044822088 0.016087633 -0.0030251534 0.015887486 -0.001404868 0.00020030826 0.011252037 -0.000610902

bias f4 [2]
00000000: 3f6b 6c3c 6438 133d
0.014429866 0.03594245
