Project_1/gcn/model_loss.pkl (torch_old, 524722 bytes, 10 tensors)

weight f4 [59, 64]
00000000: 4c20 84bd 5b22 81bc 64b4 0bb4 8935 6d3d
00000010: eb17 ffbd 7b9e 9d3d a414 a6bd 6b8e b9bd
00000020: 8b13 36bc 11ba 2f3d 0ffe 76bc abb0 653d
00000030: 1b20 00be bec3 b6bd 65b0 70bd c1d5 39bd
00000040: 64f6 ecbd 565e 7b3d 0489 f4bd 1241 9e3c
00000050: 2806 8c3d 9982 cd3c bd16 af3c 1260 083e
00000060: 4e9f 8fbd c18f ef3b 8503 83bc e7e8 8d3d
00000070: 2e9b a33d 3635 babc ca7b e93d fad4 433d
00000080: 33a9 263d 8d56 003d 85f1 bb3d a56d 07bc
00000090: 2e16 c5bd 1370 64bd 9e94 dcbd 5e2d c9bb
000000a0: 9680 d5bb 1279 a5bd 9ff0 ecba 3dc9 d53d
000000b0: 8d82 f5bc 14e9 80bc 63d8 00bd 8d11 873c
000000c0: 9cf6 023e c72d 803d 7619 023d 76fa 5d3c
000000d0: 20e8 b13c f0df 0b3d 24d6 13bd 5c8d a6ba
000000e0: aac9 b9bd 012e b73d 57a7 3fbd 0943 3abd
000000f0: eaaa bd3b f3bb e23d 9e88 0cbe 3089 d1bd
00000100: db68 8dbd fa64 0abc ff00 43a1 f966 a1bb
00000110: 2321 02be 92eb 2e3d bf5d 013e f326 7f3e
00000120: 0f06 79b4 f685 480f 081d 1fbe a154 85bd
00000130: bdd6 173e e984 e1bc 19bc abbc 6cc4 ed3d
00000140: c4b8 343d f1ae 79bc c350 76bd e8d8 01bd
00000150: 0888 b6bd 2e24 a33e e850 b5bd dc87 ee3d
00000160: 1bff 603d 5920 373d 8f10 25be 8b4a 9c3d
00000170: 3b9e ce3c 1bc1 61ba 05c4 3dbd fee9 1f3c
00000180: 580b d13d 6682 923d ec4a a33d 1e1c 30bd
00000190: a01f 8e3d 7241 e4bd 2994 07bc 6db0 aabd
000001a0: d22a 6cbd 93bb 3abd 05a4 c33c 392c cc3d
000001b0: 82b1 9b3d 64ff 69bc a54d 943d 4a6c a3bd
000001c0: ca6c 0c3d 7858 e7bc 3563 92bc 8ffa 953a
000001d0: 8826 fdbd 67bd 8839 66b0 be3c facd f719
000001e0: b67b 62bd 5112 683d b610 573c db77 953b
000001f0: c79f d73d 7506 bebd 34bd 313d 2dc2 633d
00000200: f63f 4e3c 6a40 c13d c5d4 40b4 bf54 243d
00000210: 7380 9dbc c43a dfbd 9f4c 9bbc b7a7 563d
00000220: 3955 98b5 5ba9 1fbb 2bc1 4e3e 4f89 383e
00000230: 2728 cfbd 4e6a 70bd 1823 b33c e4d3 cd3d
00000240: b734 523d ffc8 99bd 2998 dbbc bac2 4abc
00000250: 1a8e 4e3c 5dad dbbd 1ba1 afbd 7bdb 6bbd
00000260: c448 39bb 4a42 5d3d 058b 0f3d 51ac 8a3d
00000270: eddf c8bd e662 9fb9 eff6 c5bd efc2 983d
00000280: 5fcd d03b a4ab 093e 3d6a a0bd 557a a43d
00000290: 5ec1 123e 1ad3 a43d 0021 0ebb 7365 fd3d
000002a0: 478a e23d efb1 a83d 42c8 c03c 277a e2bd
000002b0: a509 a0bc b15b 1f3c 6e1d 493c 04a0 73bd
000002c0: 00d7 dcbd 1460 69bd 36f0 f83d eacb fa3b
000002d0: 934b ff3b d496 36bc 4d59 503d 3292 9116
000002e0: 232f e43d 0a83 c0bc bec5 05bc 1160 9cbb
000002f0: b8a5 953d 1cd0 dcbd f024 2bbc 7b3c 273e
00000300: 080c 843c 5890 da3d e98a dc13 a3ee 3ebd
00000310: 818d b73c 9528 93bd 3bec 0fbe 9632 4fbe
00000320: ba55 4b1f 1267 040e 6f5d d1bd 58e9 3ebe
00000330: b36e f6bb 33fd 22bd 4ef6 a00e b909 ba3d
00000340: 8d22 a8be 3e7b 823e e121 f73d 6460 733c
00000350: ec35 773d 739e 353d 2a85 a23b 9c1f 5bbc
00000360: aee7 3f3d 0e67 1d3e ebd8 653e a915 69bd
00000370: 8e37 d83d 525c 4729 b551 c83d 9571 a0bb
00000380: 7c74 273e 8298 93bd 9306 e3bc 99ad b5bd
00000390: 7426 95bd 6a78 bcbc ce46 0abd fc83 633c
000003a0: e207 90be 7a11 b63a bde4 fdbd fdeb d5bd
000003b0: 6301 ba3c d63b 28bb 06bd 60be bafe c53d
000003c0: cf73 bb3d 9ff1 32bc 30a1 c8bc 0f73 f3ba
000003d0: 4ecc 9c3e 89c8 f23d 47f7 08be 763c a694
000003e0: a78e 043d e3f8 043e cfa8 b5b8 1d86 b83a
000003f0: c0e0 a43d 89dc c9bd c1d2 40bd dbe4 42be
-0.06451473 -0.015763452 -1.301101e-07 0.057912383 -0.12455734 0.076962434 -0.08109406 -0.09060367
-0.011113058 0.042902056 -0.015075221 0.056076687 -0.12512247 -0.089240536 -0.058761973 -0.045369867
-0.11570433 0.061369263 -0.11940196 0.019318137 0.06837112 0.025086688 0.021373147 0.13317898
-0.07012807 0.007310838 -0.01599289 0.06929188 0.079885826 -0.022730451 0.11400564 0.047810532
0.040688705 0.03133254 0.091769256 -0.008265887 -0.09623371 -0.055770945 -0.10770534 -0.0061394414
-0.006515573 -0.08079733 -0.0018077082 0.10438774 -0.029969478 -0.01573614 -0.031456362 0.016487861
0.12789387 0.06258731 0.031762563 0.013548484 0.021717131 0.03414911 -0.036092892 -0.0012706923
-0.090716675 0.089443214 -0.046790447 -0.045474086 0.005788197 0.11071005 -0.1372399 -0.102312446
-0.06904765 -0.008446926 -6.606989e-19 -0.0049256054 -0.12707953 0.042705126 0.12633418 0.24917202
-2.3192136e-07 9.886561e-30 -0.15538418 -0.06510282 0.1482801 -0.027529197 -0.020963715 0.1160973
0.04412152 -0.015239463 -0.060135614 -0.031701 -0.08912665 0.3186354 -0.08853322 0.11647007
0.054930788 0.044708584 -0.16119598 0.076314054 0.025221935 -0.0008611844 -0.046329517 0.009760378
0.10207242 0.07153778 0.079732746 -0.042995565 0.06939626 -0.11145295 -0.00827507 -0.08334432
-0.057658024 -0.04558904 0.023881922 0.09969372 0.07602216 -0.014282081 0.07241372 -0.07979639
0.034283437 -0.028240427 -0.017869571 0.001144247 -0.12360865 0.00026081057 0.023277473 2.5622395e-23
-0.05529376 0.056658093 0.013126543 0.004561407 0.10528522 -0.09278575 0.04339333 0.055605102
0.012588492 0.09436114 -1.7958799e-07 0.040119883 -0.019226288 -0.108998805 -0.018957434 0.05240604
-1.1349686e-06 -0.0024362418 0.20190875 0.18021129 -0.1011508 -0.05869513 0.02186732 0.100501806
0.051319804 -0.0750904 -0.026805954 -0.012375528 0.012607122 -0.10726426 -0.0857565 -0.05758236
-0.0028272131 0.054018296 0.03504469 0.06771148 -0.098083355 -0.00030400528 -0.096662395 0.07459056
0.0063721384 0.13444382 -0.07832763 0.080311455 0.14331576 0.08048077 -0.002168715 0.123728655
0.110615306 0.08237063 0.02353299 -0.11058455 -0.019535849 0.009726451 0.012275083 -0.059478775
-0.107831955 -0.056976393 0.121551916 0.007653703 0.0077909916 -0.011144359 0.050866414 2.3518276e-25
0.11141803 -0.023499984 -0.008164821 -0.004772194 0.07306999 -0.10781881 -0.010445818 0.16331665
0.016119018 0.10672063 5.5672784e-27 -0.0466143 0.022406342 -0.07185475 -0.14054959 -0.20234141
4.3057833e-20 1.6319883e-30 -0.10222899 -0.18643701 -0.0075205206 -0.03979225 3.9680228e-30 0.09083886
-0.3283886 0.2548465 0.12067009 0.014854524 0.06035416 0.044340562 0.004959722 -0.0133742355
0.046851806 0.15371343 0.22446029 -0.056905422 0.10557471 4.426695e-14 0.097812094 -0.0048963525
0.16353029 -0.07206823 -0.027713096 -0.08871002 -0.07282725 -0.023006637 -0.03375893 0.013886448
-0.28131014 0.0013890706 -0.12397144 -0.10445402 0.02270574 -0.002567043 -0.21947107 0.09667726
0.09152948 -0.010921865 -0.024490923 -0.0018573719 0.30624622 0.11854655 -0.13375579 -1.6785564e-26
0.032362606 0.12985568 -8.6621956e-05 0.0014078055 0.0805068 -0.09856517 -0.04707599 -0.19032614

bias f4 [64]
00000000: f8e7 c4bd c8b8 8f3d 81fa 87b4 59c1 c8bd
00000010: 5752 34bd b7da e83c 9002 3cbd 751a c9bd
00000020: 3b93 01bb ad09 babd cc64 e0bc cfdf b1bd
00000030: b1f3 91bc a039 b8bd 45ae 0bbe ef6d b03d
00000040: 48a2 6dbc e878 783c 4d4e ffbd 9de6 163c
00000050: 6a73 c2bd 39d7 b73d 5af7 b83c 86a2 d0bd
00000060: 6c16 c0bd 4fe3 d7bd b24e bf3d cbef eebc
00000070: dfbe 37bb 3f70 2abc 0b94 24bd 8232 62bd
00000080: a4f0 fbbd bd78 68bd 1a57 f23b f7ff 93bc
00000090: 6560 02be 8fee c33d 5cc2 0fbd c08c 4a3d
000000a0: 983c cc3d b9e7 553c 6ae4 703d 8b47 b13d
000000b0: a4e8 e7bc e240 82bc 746f 08bd 5a84 d43d
000000c0: d8d8 aebd f582 ae3d 87e7 803c 74de 1ebd
000000d0: c36e c53d 6502 c6bd f248 b7bd afbb beb4
000000e0: 8c0e 72bd 47e6 eb3b 43c4 e0bc 9ceb 2abc
000000f0: 4a22 03be 0a66 d7bd 5ec6 bfbc 8136 8fbd
-0.09614557 0.07017666 -2.5327975e-07 -0.09802503 -0.044023838 0.028424604 -0.04590088 -0.098194994
-0.0019771594 -0.09083877 -0.027391814 -0.08685266 -0.017816396 -0.08995366 -0.13640697 0.08614718
-0.014504023 0.015165545 -0.124661066 0.009210256 -0.0949467 0.08976597 0.022578884 -0.10187249
-0.09379277 -0.105414025 0.09341182 -0.029167077 -0.0028037352 -0.010402738 -0.040180247 -0.05522395
-0.12301758 -0.05675577 0.007395637 -0.01806639 -0.12732084 0.09566986 -0.035097465 0.049450636
0.09972495 0.013055735 0.058811583 0.08656224 -0.028309174 -0.01590008 -0.033309415 0.103768066
-0.085374534 0.08521072 0.0157354 -0.038786367 0.09640267 -0.096684255 -0.0894946 -3.5526816e-07
-0.059095904 0.007199082 -0.027437335 -0.01043215 -0.12806049 -0.10517509 -0.023410019 -0.06992818

weight f4 [64, 128]
00000000: b909 67bd ff90 80bd 8193 0dbd f32d 843d
00000010: 0c45 573d 2766 573d 0333 80bd 8659 103c
00000020: 38b3 d8bc 3015 003c 7b1e febb f8d9 09bd
00000030: 8355 90bc ca5f 2d3c e9be a93d c2f7 163a
00000040: 3b30 2dbd a405 38bd 5bd9 59bd c277 99bc
00000050: 1202 39bd 91f8 ecbc 5640 663c d3b6 e93c
00000060: 15ef 3fbc 509b 8f3d 7569 b7bc 4806 8bbd
00000070: da8b 31bd 43ff d9bd 54a8 afbc 89c9 b1bd
00000080: a49b 92bb 24dd 34bd 60f0 b8bc 2704 91bd
00000090: 3551 b43c 8712 d53b b277 a83c 8953 cabc
000000a0: b5b2 a63b 291a 893d f037 793d 6ed3 0d3d
000000b0: ecba 623d 6b8d 423d 169c 48bd 1cee 63ba
000000c0: 4cae 363c ac14 91bd 0591 8abb f154 6fbc
000000d0: a2bd 7bbc 3a2e 03bd 6263 6dbc 4c8f 4c3d
000000e0: 10ab 96bd 86a6 ff3c b3f2 8d3d 5499 46bd
000000f0: e9fa 32bc c046 e23a 02a5 49ba 24cd 163d
00000100: a827 eb3c 0022 033c bf3d 863d 7a2c f4bc
00000110: 5189 803d 58f6 43bd ec98 5e3d 555e 803d
00000120: f8c1 873d 47d5 96bc ee81 413c cc3b aebd
00000130: 2aac 95bd 251e 363d c011 1d18 b4f1 8ebd
00000140: b23d ef3c 60a7 b63c ecff 73bd 09ac 603d
00000150: 7cd3 4bbd acc1 b0ba b967 97bd 71df b4bc
00000160: 915d e0bc 6e77 fbbc f938 1ebb aa95 35bb
00000170: 5765 2a35 bb53 75aa 934f 733d 4346 283d
00000180: 6212 b93c 6571 e3bb 4472 b3bd 7a3a a9bc
00000190: 7c61 903c 939a e9bc f421 04bd 3bc9 c4bd
000001a0: c940 68ae 95d3 ceba e216 15bb 4808 7c3d
000001b0: 3bd3 03bd 44c9 fcbc 3ee0 663d 76ed 393d
000001c0: 12ce d6ba b066 193b 0589 3ebd 2823 a3bc
000001d0: 545d c23c defc 5f39 1e73 a4bd 21d8 133b
000001e0: afe8 7bbd 3147 b23c ad3e 19bd 9e49 fb3c
000001f0: f99b acbd 7e24 283d bee1 d1bc 6428 1ebd
00000200: 4565 08bd 9c40 78bd 97c4 493d 931c 853c
00000210: 3ac7 8dbb ae4a 6b3c 63b5 d8bc 21e2 c13c
00000220: fd94 143c 46c9 a2bd d7ff dc3c 1b31 85bc
00000230: 2668 18bd 99b2 c7bc d8a0 863d 577b 7bbc
00000240: b335 78bc ea0e 8c3d 41b0 aebd 0aad 85bd
00000250: 0516 f93c cd46 9cbd 7daf 10bd 1d0e 16bc
00000260: 68d0 46bd b6eb 0f3d 2b4c 46bd a31b fcbc
00000270: b22b 823d 6f87 6dbd d27d 4dbd f350 d1bc
00000280: 5697 4ebd 40a8 4fbd e86a 1f3d a563 793c
00000290: 6d8c 9dbc 27d1 c73c a7a7 5fbd a107 963d
000002a0: f9da 18bd 766f 89bc ef91 78bd b76a 333d
000002b0: 3285 cfbc 65df 303d cc53 893d 7262 b93a
000002c0: 4018 ea3c 9b49 87bd 8df0 be3d d29a a4bc
000002d0: 9c26 13bd ecca 3abb c5e1 c13d 8af7 133d
000002e0: 4ae2 f83c e477 bc3c fcf9 69bc 0370 f7bc
000002f0: 7667 9dbb 4b4c e8bc 8957 82bd a841 053c
00000300: 2349 8e3d 3ac8 0d3b e879 17bd 4dc0 2f3d
00000310: 4786 623d 050e 943b acd3 063c 03f6 ad3b
00000320: 003a 763d c1b7 83bd 76ef babc 3262 93bd
00000330: 3112 a03c a512 893d fc99 2cb6 9e07 e8bc
00000340: 878a 7b3c 3229 033d 60dc c6bd b0a3 b93c
00000350: 589f 03bd 2363 4b3c 19aa 7a3c 4042 6abd
00000360: 620a acbd ef74 c43d 0cfa f3bc 6a70 6c3d
00000370: 2285 86b5 adbb 64b8 6c49 58bd 8ef8 cebb
00000380: cd9f 8dbd acf6 6c3d 566f 253d 846f 9cbd
00000390: c955 a9bd 54c9 9bbc a5dd 943d 7d10 083c
000003a0: 7aef bab5 aaac b7bd 30f1 b8bd 9a2d 53bd
000003b0: 2988 a4bd 0f31 23bd e5b4 60bd 1015 60bd
000003c0: 228d 05bd 1c75 b9bc bf39 b7bd e5c0 473c
000003d0: 4d97 a23d fc77 e5bc 903b 973d 0b0a 52bd
000003e0: a5ac 1d3d 9054 d33c 825a 823d 0398 1abd
000003f0: b37d babc 4420 9fbd 6077 70bc b02f 903c
-0.056405757 -0.06277656 -0.0345645 0.064540766 0.052556083 0.052587654 -0.0625973 0.008810407
-0.026452646 0.0078175515 -0.0077550984 -0.033655137 -0.0176189 0.01058192 0.08288366 0.00057589647
-0.042282324 -0.044927254 -0.053185802 -0.018733863 -0.04516799 -0.02892712 0.014053425 0.02852956
-0.011714716 0.070120454 -0.022389153 -0.067883074 -0.043346263 -0.106443904 -0.02144257 -0.08681018
-0.00447412 -0.04415621 -0.022575557 -0.0708087 0.022011379 0.006502453 0.020564888 -0.024698036
0.0050872215 0.06694443 0.06084436 0.034625463 0.055354044 0.047498148 -0.04897698 -0.0008694844
0.011149954 -0.07084021 -0.0042287135 -0.014607654 -0.015365036 -0.032026507 -0.014489027 0.049941346
-0.07356846 0.031207334 0.06931057 -0.04848607 -0.010924079 0.0017263517 -0.00076921296 0.03681673
0.028705433 0.008003712 0.06554746 -0.029806364 0.06276191 -0.047842354 0.054345056 0.062679924
0.066287935 -0.018412245 0.011810763 -0.08507499 -0.07308228 0.04446234 2.0300736e-24 -0.06979695
0.029204223 0.022296607 -0.059570238 0.054851566 -0.049762234 -0.0013485453 -0.073928304 -0.022079201
-0.027388366 -0.030696597 -0.0024142845 -0.0027707615 6.3477404e-07 -2.1789421e-13 0.05940206 0.04108263
0.022591773 -0.006941008 -0.08762029 -0.020657767 0.01762461 -0.02851609 -0.032258943 -0.09608694
-5.2808233e-11 -0.0015779609 -0.0022749235 0.061531335 -0.032183867 -0.03085769 0.056366198 0.045392476
-0.0016388318 0.0023407154 -0.04651739 -0.019914225 0.023726143 0.00021361138 -0.08029769 0.0022559243
-0.0615012 0.021762462 -0.037413288 0.030674752 -0.08428187 0.041050427 -0.025620338 -0.03861274
-0.033299703 -0.06060849 0.04925975 0.016248977 -0.004326728 0.014361067 -0.02645368 0.023667397
0.009068725 -0.07948546 0.026977463 -0.016258767 -0.0372087 -0.024377154 0.06573647 -0.015349231
-0.015149522 0.06838782 -0.085297115 -0.06527145 0.030406008 -0.07630692 -0.03532361 -0.009158638
-0.048538595 0.0351369 -0.048412483 -0.030774897 0.063559905 -0.057990488 -0.05016882 -0.025551295
-0.050437294 -0.050697565 0.038920313 0.015221511 -0.019232 0.024391724 -0.054603245 0.07325674
-0.037318204 -0.016776782 -0.060686048 0.043802943 -0.025332067 0.043181796 0.06705436 0.0014143719
0.028576016 -0.06605836 0.09323225 -0.020093355 -0.035925493 -0.0028502299 0.0946689 0.036124744
0.03038134 0.023006387 -0.014280792 -0.030204779 -0.0048035933 -0.028356692 -0.06364352 0.008133329
0.069475435 0.0021634237 -0.036981493 0.042908 0.055303838 0.004518273 0.008229177 0.005308868
0.060113907 -0.06431533 -0.022819262 -0.07196464 0.019539924 0.06693009 -2.5719628e-06 -0.028323945
0.015352852 0.03202171 -0.09710002 0.02266106 -0.032134384 0.012413773 0.0152993435 -0.057192087
-0.08400418 0.09592616 -0.029782318 0.057724394 -1.0022525e-06 -5.4534223e-05 -0.052804396 -0.006316251
-0.06915245 0.057852432 0.04038938 -0.076384574 -0.08268315 -0.0190169 0.07268838 0.008304712
-1.3927777e-06 -0.0896848 -0.09030378 -0.05155716 -0.08033783 -0.039841708 -0.054860014 -0.054707587
-0.032605298 -0.02263885 -0.08946561 0.012191986 0.079390146 -0.028011315 0.073844075 -0.05127911
0.038494725 0.025797158 0.06364919 -0.037742626 -0.022765016 -0.07769826 -0.014676899 0.017600864

bias f4 [128]
00000000: 403a 7abd a2ee 0abd 95a0 bdbd 3756 523d
00000010: c969 063d 917d 943d bbd3 adbd bada b3bd
00000020: 5fc6 91bd 7224 6fbd b890 153d 24e2 bd3d
00000030: eef9 a83d a736 a3bd 1b68 91bd e517 fa3c
00000040: 6598 79bd 1fe4 66bd d181 4f3d b046 43bd
00000050: 860a 08bd 1759 5fbd 1a0f 773d 7824 aabc
00000060: 3812 9fbd 40dd 4ebd 6c3d 9339 93b1 693c
00000070: eb47 8cbd 74a3 fcbc c4a3 133d e011 e03b
00000080: 1d1b 213c d3bf 253d 3626 b83d 6ae5 1fbc
00000090: 46a3 0bbb da7f ce3b 0965 653c f09e 743d
000000a0: b362 c23d f452 8d3d 4df6 f63c 45c7 84bd
000000b0: 833b 0bbd e719 71bd 8df1 7bbd f23a c8bb
000000c0: 9e5b 583d 1616 7cbd 574a dc3c e86d 34bd
000000d0: 59c1 0abd 38e5 943b 568f 013c 8313 ba3d
000000e0: c568 f1ba 0564 89bc 73d9 903d f0ce 4c3d
000000f0: c42e 783d 99eb 45bb 42b4 2f3d f7f2 eabd
00000100: 6ea0 073d f2d5 babd 4aa2 7c3d 29ce 8abd
00000110: cd85 213d 2c8e 5ebd e8e5 69bd 3b03 f3bc
00000120: 24f0 bf3d b7f2 cebd aef2 8d3d cd9f c2bd
00000130: 64d0 80bd c0bc fa3c 30c0 07ba 4a6a 75bd
00000140: 04d7 aa3d 9bf7 b13c fae3 bebd dfad 703d
00000150: 9beb 16bd 7027 063d 6c01 afbd cbe0 083e
00000160: 2ea0 84bd 8976 463d 1dc0 253d 771f 553d
00000170: 760d 58b7 771d 86b8 6a97 f0bb e8ad 563c
00000180: 1cb0 1e3d 7eaa b63c 9946 46bd 3824 623b
00000190: ba0a e6bc 1f4b d13b ef1f 4b3c a6b7 873d
000001a0: a7f9 bbb5 a8d9 d5bd 2fd6 523d 2134 9e3d
000001b0: c013 b3bb d5d2 0fbd 5241 823c f1e0 873d
000001c0: bb03 8bbd f893 bf3d ac92 443d ee0a 003d
000001d0: 60d6 b03d fc2f 53bd 0fa0 15bb bffc 6bbd
000001e0: 811b cdbd 3829 923c ccff ba3c 6038 8a3d
000001f0: b276 4dbb 04f2 87bd bc53 d63c 1b7f 8b3d
-0.061090708 -0.033918984 -0.09259144 0.051351752 0.03281573 0.072505124 -0.0848765 -0.08781953
-0.071179144 -0.058384366 0.036514968 0.092716485 0.08250795 -0.079694085 -0.07099935 0.030528972
-0.06093635 -0.056369897 0.050660912 -0.047674835 -0.03321316 -0.054528322 0.060317136 -0.020769343
-0.07767147 -0.05050397 0.00028083788 0.014263528 -0.06849655 -0.03083966 0.03604485 0.0068380684
0.0098331245 0.04046614 0.08991663 -0.009759286 -0.0021307035 0.006301862 0.014001139 0.059721887
0.09491482 0.06900588 0.030146742 -0.0648332 -0.0339923 -0.058862593 -0.061509658 -0.0061105425
0.052821748 -0.0615445 0.026890917 -0.044050127 -0.033875797 0.0045439266 0.007907709 0.09085753
-0.0018418065 -0.016771326 0.07072725 0.05000204 0.060591474 -0.0030200242 0.042896517 -0.11472123
0.033111982 -0.09122838 0.06167821 -0.06777603 0.039434243 -0.054334804 -0.05710402 -0.029664626
0.09371975 -0.10104888 0.06931053 -0.09503136 -0.06289747 0.030607581 -0.00051784795 -0.05991582
0.08341792 0.021724513 -0.09320827 0.058759566 -0.036845785 0.032752454 -0.08545193 0.13367002
-0.06475864 0.048452888 0.040466417 0.05203196 -1.2877737e-05 -6.395106e-05 -0.0073422687 0.013102986
0.03874217 0.022298094 -0.04840717 0.0034506451 -0.028081287 0.006387129 0.01239775 0.06626825
-1.4005244e-06 -0.10441905 0.051473793 0.077247865 -0.005465001 -0.035113174 0.015900288 0.06634701
-0.06787821 0.09354395 0.04799144 0.031260423 0.08634639 -0.051559433 -0.0022830998 -0.057614084
-0.100150116 0.01784192 0.022827052 0.06749034 -0.0031351265 -0.06637958 0.026162975 0.06811353

weight f4 [128, 128]
00000000: c9e5 d6bd 3bdd 12bd db62 29bc 0fc3 1bbd
00000010: dd33 c4bc 07a2 22bd 3603 60bc 4baa 043c
00000020: 6517 babc d169 2b3d c0f0 0abd 9734 18bd
00000030: 1021 a7bd c902 a53c aa19 333d f536 dd3c
00000040: 85d1 2b3d 5611 0b3c c7ae 8bbd c433 db3a
00000050: bf20 793a 9cbf c8b9 d62f 6bbc 133a c1bc
00000060: 66b6 82bd 8468 57bb 114d 9fbd cab8 8cbd
00000070: 63ac 89bd fbed 30bd 85c3 ef3c a18f d2bd
00000080: 8b27 a7bd f62c 32bd d6bd c1bd 8dcc f5bc
00000090: d96c cabc caaf 95bd 934e 983c 0b4c 78bd
000000a0: 9b35 70bc f77b 70bb 515b db3c 9fbf ff3c
000000b0: 0155 8fbd 56a4 2e3d 8bc1 54bc 1da0 aabd
000000c0: c2d3 3bbd 1386 c7bc b040 d4bd 461a 923c
000000d0: e94c debc f2f7 a3bd 1b7d ef3b 5530 3ebc
000000e0: 3b09 b5bd 113d 1bbd 4abf 09bd 4fe1 4bbd
000000f0: 2c2a 89bc 4e58 b2bd bc93 c9ba 5b64 753b
00000100: 8618 00bd 0c80 08bd b276 afbc ce19 7abd
00000110: a417 97bb df9a 79bc 62b6 87bd ac09 c73b
00000120: f28d 05bd 8d16 7e3d 094c ac3b b2a2 8c3c
00000130: 97b4 e2bc 5be7 99bd 164a 153d b31e b3bd
00000140: b4c9 a9bd c2f9 58bd f99a 8ebd 8d82 6da3
00000150: 27b7 ddbb 19ba 323b cba9 cdbd acaf 36bd
00000160: d33c 10bd e472 fa3c 6991 e3bc d67b fd3c
00000170: f36f c8bd 0a29 3bbd ef6b 833c af68 96bd
00000180: bdad 81bd 3ded 2dbd ad43 cb3c 7bef 6dbd
00000190: 7d88 073d 464a a83b 629c 713d 8d40 93bd
000001a0: e99a a5bd 3c6d eb3b 8636 a0bc 8ce3 e83c
000001b0: 9561 3dbb 0063 1d3d c129 b9bc 3366 4f3c
000001c0: 031e 78bd 2f5b 9f3b 5368 bbbc df63 b9bc
000001d0: ad74 58bd 5056 4ebd b002 4d3b 0265 8dbc
000001e0: 57dd 61bd 2a07 a9bc 468d 0ebd c00b 473d
000001f0: ed16 41bd 70cd 5cbc d6e5 713d 96ae 053b
00000200: be65 023e a939 c1bd 5d0a 14bd 7c88 b1bd
00000210: 6cf0 b1bd a88e bc3c 86f2 8cbd e6e8 573d
00000220: e8c1 6c3d 7f65 abbd bc63 7ebd 6068 4a3c
00000230: f162 1cbd de96 00bd 4dd6 eebc 15e3 a23c
00000240: ee0a 63bd 36c0 5cbc 2143 903d ca86 41bd
00000250: 9459 8539 7590 a1bd d8ab 283d 540d e03c
00000260: 1178 7f3d 05f7 c5bc 94da 983d ca40 163d
00000270: e5b5 aabd ec24 413c e4e9 65bd b7e4 373c
00000280: ae8f b9bc 73bd a53d 5fa4 9dbc 530a a23d
00000290: 9d65 423d fe0d efbc 5f47 063c 9e09 a5bc
000002a0: 8896 bd3c b0d5 5d3d 3157 5f3d 78a3 fc3b
000002b0: dde8 35bd cfd5 bd3c 8e3c 863d 258b edbc
000002c0: d772 c9bd c3f7 20bd d1a5 8bbd 88fc 533d
000002d0: eb3a d6bd f19a a93c b024 58bc 3851 d0bc
000002e0: 5e2c a1bb 6d57 07bd c00b 353d ce81 d03c
000002f0: 45ac 48bd d3fd bb3c 1dd2 afbc d857 573c
00000300: 51f5 8bbd 8c92 223c 5830 223d c41b a6bc
00000310: e1d3 6ebd 4ce1 c13b 548f 7a3d 2411 05bd
00000320: 5a92 e33c 7b9a 1bbd 443d bcbd 650c 58bd
00000330: 1304 663d 62b1 a83c ad99 ccbd b8cf ac3d
00000340: 3304 46bd 1258 523d 4132 1c3d 7a4e f724
00000350: 3744 473d 1f13 cfbd 6ecf cfbd fb1f a4bd
00000360: 673b 86bd d9a1 4d3d ef09 e7bc 959d 3abc
00000370: f68f 023c 92f5 87bb af8a 23bd 85f4 97bc
00000380: 46ad c03c e7cd 4dbc a890 8b3d b48c efbc
00000390: b5cf 6abd a290 d6bb dbf4 983d fe93 37bc
000003a0: 3c41 c4bd 450d f1bc b6d1 abbb 3780 473d
000003b0: b5c0 e9bb 354c 92bd 2f91 f23c ae75 793d
000003c0: 90dc babc 1f7a 61bd 8246 73bc db81 713d
000003d0: fedd 62bd cbb9 73bd f3ef 58bd 69ce 323c
000003e0: 77fb 9ebc 03d7 983c b7c4 643d f57e 8a3d
000003f0: ddb4 41bd 6fec 6abb 5f4f d13c 645c 053d
-0.10493047 -0.035855513 -0.01033851 -0.03802782 -0.023950512 -0.039705303 -0.013672641 0.008097242
-0.022716234 0.04184896 -0.033921003 -0.03715953 -0.08160603 0.02014293 0.043725647 0.027003745
0.04194786 0.00848802 -0.068204455 0.0016723801 0.0009503476 -0.00038289733 -0.014354667 -0.023587262
-0.06382446 -0.0032868693 -0.07778371 -0.06871183 -0.06722333 -0.043195706 0.029268036 -0.10281301
-0.08161839 -0.04349991 -0.094600365 -0.030004764 -0.024710106 -0.0730892 0.018592155 -0.060619395
-0.014661218 -0.0036694983 0.026776941 0.031219302 -0.06998635 0.04263719 -0.012985597 -0.083313204
-0.045856245 -0.024355924 -0.10363901 0.017834794 -0.027136283 -0.08006276 0.007308615 -0.011608203
-0.08839651 -0.037900034 -0.033629693 -0.049775418 -0.016743742 -0.08708249 -0.0015379111 0.003744385
-0.031273387 -0.03332524 -0.021418903 -0.061059766 -0.0046109725 -0.015234678 -0.06626584 0.006074151
-0.032606073 0.062033225 0.0052580875 0.017167423 -0.027674003 -0.07514831 0.036447607 -0.0874609
-0.08290425 -0.052972563 -0.069631524 -1.2875441e-17 -0.006766218 0.0027271567 -0.10042151 -0.044601128
-0.035214256 0.030572362 -0.027779298 0.030942839 -0.097869776 -0.045693435 0.016042678 -0.073441856
-0.06331966 -0.042462576 0.024812544 -0.058089714 0.03308915 0.005135807 0.05898703 -0.071900465
-0.080861874 0.0071846526 -0.019557249 0.028428815 -0.0028897275 0.038424492 -0.022602918 0.012658644
-0.060575496 0.004863165 -0.022876894 -0.02263063 -0.052845646 -0.050375283 0.003128212 -0.017260078
-0.055142727 -0.020633299 -0.034802698 0.04859519 -0.047141004 -0.0134767145 0.05905708 0.002039825
0.12734124 -0.09434826 -0.036142696 -0.086686105 -0.08688435 0.023017243 -0.06882195 0.052712344
0.05780211 -0.08368968 -0.062106833 0.0123539865 -0.038180295 -0.03139388 -0.029154921 0.019883672
-0.055430345 -0.013473561 0.07044054 -0.047247685 0.00025434478 -0.07888881 0.041179508 0.027350105
0.062370364 -0.02416564 0.074635655 0.03668288 -0.08335475 0.011788588 -0.05613126 0.011223963
-0.02265152 0.08092775 -0.019243417 0.079121254 0.047460187 -0.029181477 0.008195727 -0.020146187
0.023143068 0.054158866 0.05452651 0.0077099167 -0.04441153 0.023173241 0.06554519 -0.028997013
-0.09836357 -0.039298784 -0.06818736 0.051754504 -0.104604565 0.020703765 -0.013192341 -0.025429353
-0.004918619 -0.03304236 0.04420066 0.02545252 -0.048992414 0.022948181 -0.021462495 0.013143502
-0.068339 0.009922635 0.039596885 -0.020276912 -0.058307532 0.00591675 0.061171845 -0.03248705
0.027779747 -0.03798912 -0.09191373 -0.052746195 0.05615623 0.020592395 -0.09990249 0.08438057
-0.04834385 0.05135352 0.038133863 1.0725212e-16 0.04864904 -0.10111069 -0.10146986 -0.08013912
-0.06554299 0.050203178 -0.028202979 -0.01139011 0.007968893 -0.0041491473 -0.03992718 -0.018549213
0.023520123 -0.012561298 0.068147 -0.029241897 -0.05732699 -0.0065480033 0.074685775 -0.011204718
-0.09582755 -0.029425273 -0.0052435054 0.04870626 -0.007133568 -0.071434416 0.029610245 0.060903244
-0.02281025 -0.055048104 -0.014848353 0.05896173 -0.05538749 -0.059503358 -0.05296321 0.01091347
-0.019407017 0.018657213 0.055851664 0.067624964 -0.047291625 -0.0035846492 0.025550542 0.032558814

bias f4 [128]
00000000: 1515 d03d 6366 09bd 071a 78bd 52e1 19bd
00000010: 4f7b 41bd cf56 b9ba 003d 97bd ef75 5f3d
00000020: f6ba 253d 21ed bcbc 2df8 6bbc 1036 8d3d
00000030: ebdd 3f3c bfe9 c1bc ce56 673d 210d 9abd
00000040: 2093 55bd 8d28 02bc 8bd4 2f3d 4b32 74bd
00000050: 046d d8bb 2702 c73b fa6a 2d3c aaeb a8bc
00000060: adab 70bc 7f1f 2e3d 91e5 bcbd 81aa 81bd
00000070: b036 7f3d a47c 663d 4f3c bcbc 70a3 a1bd
00000080: d8a2 053d 4bab c3bc 0780 97bc 55d7 94bd
00000090: c809 a7bd 917d 703d adf0 abbc 7a31 c43c
000000a0: 3d56 4bbb db12 a9bc ec91 033d edf4 94bc
000000b0: e30b a9bd 810e 773d e52b abbc b400 88bc
000000c0: ae20 8a3d 3d71 b33c e465 d83c f23e 963c
000000d0: 9bcc 31bd 925f 4ebc 9aac 15bc 98a0 b53c
000000e0: a30d f7bc d79f b1bc c98a 61bc 0b4c aa3c
000000f0: f893 c1bd b6a5 e2bc 03fd 443d 69e1 903c
00000100: ea2f 82bd 645f 3bbc 2330 a3bd 2407 1a3c
00000110: b573 09bd 4a37 0dbd e747 503d 98eb 65bd
00000120: 100d bebd e14d ed3c 8024 ad3c 9e26 74bd
00000130: 593e 96bd 41de b9bd 9120 1bbd 9a44 873c
00000140: 4070 4fbd 2341 c1bd 74ef 19bd 9bbc 91a6
00000150: 42f4 1d3d 4a6e c6bd b6c1 673d 2657 18bd
00000160: a505 fa3b d44f c7bc 17d5 df3d a641 d33c
00000170: 8bd7 233d 288e 00bd 593a ff3b 0a7e 65bd
00000180: b36d a5bd 3bca 4d3d 1dff 8cbd 54ac 743d
00000190: 6872 593c 23a6 073c 2025 cdbd 0d10 30bd
000001a0: 6c80 5dbd e4b8 c0bd 2307 a3bd d823 7bbd
000001b0: 1af4 8e3c 2309 de3c 4b35 2a3a 0b03 13bc
000001c0: 1200 72bd 1add c2bc 66c1 f4bd 30ee 893b
000001d0: 48e7 743d 0bd7 2dbd a187 b7bd 6b95 10bd
000001e0: d56d 55bd d055 27bd 6e53 cabd 98ee 92bd
000001f0: 94ac 74bd ecb0 5b3d 635e e0bb c211 16bb
0.10160271 -0.03354491 -0.060571697 -0.037568398 -0.047236737 -0.0014140251 -0.07384682 0.05455583
0.040461503 -0.02306229 -0.014402431 0.06895077 0.011710624 -0.02367103 0.056479268 -0.075220354
-0.052142262 -0.007944238 0.042927306 -0.059618276 -0.0066047926 0.0060732546 0.010584587 -0.020620186
-0.014689368 0.042510506 -0.09223474 -0.06331349 0.062308013 0.05627121 -0.022977976 -0.07892501
0.032626003 -0.02388539 -0.018493665 -0.07267634 -0.081561625 0.0587135 -0.020988787 0.023949374
-0.0031026744 -0.020638874 0.032121584 -0.018183196 -0.0825422 0.060316566 -0.020894954 -0.016601898
0.067445144 0.021904582 0.026415773 0.018340562 -0.043408018 -0.012596028 -0.00913539 0.022171304
-0.03015787 -0.021682663 -0.013765999 0.020788213 -0.09452051 -0.027666908 0.048092853 0.017685609
-0.06356795 -0.011436317 -0.07968166 0.0094011165 -0.033557612 -0.034476556 0.05084982 -0.056132883
-0.09279835 0.0289678 0.021135569 -0.05960714 -0.073361106 -0.09075595 -0.037872855 0.016512204
-0.05064416 -0.09436252 -0.037581876 -1.0112518e-15 0.03856302 -0.09689005 0.05658122 -0.037192486
0.0076300674 -0.024330057 0.109293155 0.02578814 0.04000048 -0.03138557 0.007788938 -0.056028403
-0.08077564 0.05024169 -0.068845965 0.059734657 0.0132719055 0.008279356 -0.10016847 -0.042984057
-0.05407755 -0.09410265 -0.079603456 -0.06131348 0.017450381 0.027103966 0.00064929266 -0.0089728935
-0.0590821 -0.02378707 -0.1195095 0.0042093024 0.05979088 -0.04244141 -0.08961416 -0.035298746
-0.052106697 -0.04085332 -0.09879194 -0.071744144 -0.059734896 0.053635523 -0.0068471893 -0.0022898768

weight f4 [128, 256]
00000000: 65dc d73c 3ec1 39bc 5aa7 a4bc 7834 e13d
00000010: 407b c8bc 1626 dfbb 7538 aa3b 5fee 253d
00000020: 1fd9 11bb 9a05 0cbd 1e1b 6a3d a2d8 0d3d
00000030: 2699 2eba 16fb 67bd e208 8dbc c9f8 afbd
00000040: 6fc0 343d e45f a63c 9afc 2abc 0cdf 27bd
00000050: ff3d 773b d224 64bd c92a 17bd 2669 5bbc
00000060: cc99 8ebb 4cc6 4f3c 046f 263e 2f1a 1d3d
00000070: 79ad 993d 8316 b0bb 38eb a4bc ebb8 11bb
00000080: 2d87 22bb 12fe 8dbd 0404 8e3d b86d 3cbd
00000090: 6583 d0bc a61b 0e3b 8022 ac3d a31c c13c
000000a0: 95f7 2dbb a626 eebb c4b1 a439 7dae 80bb
000000b0: c112 88bc b581 2abd f848 503b 68c5 54bd
000000c0: 41d5 ad15 a4ff f43b 29e3 69bd e241 063c
000000d0: cf59 ccbc 89c1 49bd 2754 f7bc 86fb b3b9
000000e0: ce13 1ab2 ddb1 2c3a 7136 a23b 1937 233e
000000f0: 7659 5836 f1dd c6bd f56a 28bd 981a 6dbc
00000100: 5f45 fbbb 476a 22bd 1572 263c 214f f13b
00000110: 7b00 a83c 2d61 89bc 4da8 8d3c 8b41 64bb
00000120: d54c 84bb eb3d e6bc edda 803b ef2f 843d
00000130: 1ae0 bfbb 00f5 16bc 6cf4 c63a 4ad8 faba
00000140: f814 a73b bec8 bbbb c72c 1a3e d973 46bb
00000150: eddf 83bd 00dc 823c a684 cebc 2ea0 dfbd
00000160: 3d1e b9bc 3a7e 2139 b49c 96bb 2670 abbc
00000170: 5a09 5cbd 701f b2bb 0a8c 71bc 50d8 4bbc
00000180: b16d 84b9 cdd1 b6bc a12d 40bd 5bb5 84bc
00000190: 3527 8d3c 7ef7 d3bc b8b9 333d 695c 6fbd
000001a0: c470 423d 2b7f 89bd 8f4a 033c f1d1 a73b
000001b0: 3e2a d8bb 8297 b6bb a6e3 133b 1eeb 95bc
000001c0: a529 4ebb 5478 29bb 730c d4bb 0745 aabc
000001d0: 54f4 6fbc 7e8a 233a bd08 bdbc c1ef b13c
000001e0: 6ee3 0fbd aadb 0eba 9e19 d8ba e94c 2eba
000001f0: 430d 08bd b24b 9cbc 50a5 1e3c a38c cfbc
00000200: 4962 8b3d 4004 39bb 2e94 c3ba 6ccc 58ba
00000210: 76a5 f1bc 53eb 68bc 8933 503d 33b3 81bd
00000220: 7fc0 25bd 277d f23c 85b0 89bd e2f1 5c3a
00000230: 1adc 053c 322b 813d 6ae4 b135 2fd9 f33d
00000240: d502 b0bc 84c7 b33c 3d1e 9bbc 2786 0ebb
00000250: b65b 3bbd 3ed5 ecbc 272c 643d 2b1d 3f3c
00000260: 10f8 fe3a c35e a0bd 7c49 2abe ba24 3fbc
00000270: ee33 323a 3347 903c 55b4 59bb e6d1 513b
00000280: c31f 8e3b 9a3d 193c fd74 00bc 5a2e 1bbc
00000290: af06 3ebd 8f31 de37 c0a4 44bd dfa1 b23c
000002a0: 1f3a 41bc eef4 84bc 0b28 7a3d 6b70 a83d
000002b0: eac9 4bbd ef20 c4bc c0c1 1ebd 40c0 41bc
000002c0: a021 95bd 571b 0abc 243c 22bc 9f59 8839
000002d0: c5b1 5e3d d25d e0b9 51f5 88ba 9c90 383c
000002e0: 5774 2cbb e1c2 bb3c 8805 4bbd 79e1 c03d
000002f0: fb8a cd3c 6b5a 3bbc 0b07 983b 3fd2 a1b9
00000300: 5092 a63b 3d79 9e3b 069c 17bd 9955 4dbd
00000310: 2f21 abba 5ea9 d8bc 0884 a73c e7b1 c1bb
00000320: b548 32bc 8621 753d b032 8a3c 7dfb fabc
00000330: 86cb 473d bca8 2abd e9c5 49bd 7e9e 333b
00000340: 674f babc 1763 c43c 0a74 d2bc c8d0 0a3d
00000350: 0fff 363c 74e2 90ba bf72 b03b d65f 9c3c
00000360: a6cb 05bc 8e6b 92bc 8184 f6bd f950 12bd
00000370: 8a6d 893c cfbf f0bc 2e9f 53bc 34cf 35bd
00000380: f2f1 3d3c c03e 4b3b 9338 9f3b d42d cbbc
00000390: 4dc2 3e3d 611b 6abc 4891 70bc 403c 2ebd
000003a0: ff05 fbbb 24d8 71bd 9128 8fbc 494f 93bc
000003b0: 3ab0 52bd 64cf 7fbb 849c e0bc 285b d2b9
000003c0: c23d 2fbd eb94 3ebd ceb1 82bd 0afb 0e3c
000003d0: a9c9 993c 5587 43bd b2f6 06bd 2b6d 12bd
000003e0: 2b76 54b9 f086 04bd d2ca 023c 3f6c bebb
000003f0: 2ca9 01bc 4378 7abd 95e0 373d 6ec0 6dbc
0.02635021 -0.011337576 -0.02009933 0.10996336 -0.024472833 -0.00680996 0.0051947185 0.04051053
-0.0022254658 -0.03418503 0.057154767 0.034630425 -0.0006660394 -0.05663594 -0.01721615 -0.08592374
0.04412883 0.020309396 -0.0104362015 -0.0409842 0.0037726162 -0.055699177 -0.036906037 -0.013391769
-0.00435183 0.012681555 0.16253287 0.03835505 0.075037904 -0.0053737774 -0.020131692 -0.0022235464
-0.002479981 -0.06933226 0.0693436 -0.046003073 -0.025453279 0.002168396 0.08405018 0.023573225
-0.0026545275 -0.007267791 0.00031412963 -0.0039270506 -0.016610505 -0.041627605 0.0031781774 -0.051946074
7.02106e-26 0.007476764 -0.057101402 0.008194419 -0.024945168 -0.049256835 -0.030191494 -0.0003432894
-8.968483e-09 0.0006587783 0.0049503376 0.15938987 3.2238581e-06 -0.09710301 -0.041117627 -0.0144716725
-0.007668182 -0.039652135 0.010159035 0.007364169 0.020508042 -0.01676997 0.017292166 -0.0034829106
-0.0040374794 -0.028105697 0.003932348 0.06454455 -0.0058555724 -0.009213686 0.0015179045 -0.0019137945
0.005098935 -0.0057307174 0.15056144 -0.0030281453 -0.06439195 0.015974045 -0.025209736 -0.10919224
-0.022597427 0.0001540118 -0.004596317 -0.0209275 -0.053719856 -0.0054358765 -0.014742861 -0.01244171
-0.00025258728 -0.022316838 -0.046918515 -0.016199758 0.01723061 -0.02587485 0.043878287 -0.05843774
0.047470823 -0.067137085 0.008013382 0.0051214625 -0.0065968325 -0.0055722604 0.002256611 -0.01830059
-0.0031457928 -0.0025859075 -0.0064712106 -0.020784868 -0.014645655 0.00062385935 -0.023075456 0.021720769
-0.035129003 -0.00054496026 -0.0016487127 -0.0006649034 -0.033215772 -0.019079063 0.009682968 -0.025335616
0.06805856 -0.0028231293 -0.001492148 -0.00082702073 -0.029497843 -0.014216262 0.050830398 -0.06333008
-0.04046678 0.029600693 -0.067231216 0.00084283773 0.008170152 0.06307067 1.3254005e-06 0.11906659
-0.021485725 0.021945722 -0.018935317 -0.0021747441 -0.04574176 -0.028910276 0.05570617 0.011664669
0.001945259 -0.07830574 -0.16629595 -0.011666471 0.0006797899 0.017612075 -0.0033219059 0.0032015978
0.0043372824 0.009353066 -0.007840392 -0.0094715 -0.046393093 2.648754e-05 -0.04800868 0.021805702
-0.011793642 -0.016230073 0.061073344 0.08224567 -0.049753107 -0.023941485 -0.038758993 -0.011825621
-0.07281804 -0.00842937 -0.009902034 0.00026006714 0.054368753 -0.0004279451 -0.0010449087 0.011264946
-0.002631446 0.022920074 -0.049565822 0.094180055 0.025090685 -0.011435132 0.0046395115 -0.00030864959
0.00508336 0.00483623 -0.03701403 -0.05013046 -0.0013056154 -0.026447948 0.0204487 -0.0059111
-0.0108815925 0.059846424 0.016869873 -0.030637497 0.04877808 -0.041664824 -0.049261007 0.00274077
-0.02274294 0.023973031 -0.025690097 0.033890516 0.011169209 -0.0011053816 0.0053847726 0.019088667
-0.008166229 -0.017873552 -0.12036992 -0.035721753 0.016775865 -0.029388336 -0.012916369 -0.044387057
0.011593329 0.0031012744 0.004859039 -0.024802126 0.04657202 -0.014288754 -0.014683075 -0.042537928
-0.007660627 -0.05904402 -0.017475398 -0.017982142 -0.051437594 -0.0039033527 -0.027418382 -0.00040122238
-0.042783506 -0.046528738 -0.0638157 0.008726845 0.018772917 -0.047736485 -0.03295011 -0.035748642
-0.00020261917 -0.03235525 0.007982926 -0.005811244 -0.007913869 -0.061149847 0.044891912 -0.014511211

bias f4 [256]
00000000: f5e5 c13c b426 993c f4ab a93c 6641 283d
00000010: b3d7 9cbb 37a1 683c 7ca9 abbc 9f69 043d
00000020: 25cb c3bb 51df 48bb 63e6 cd3a 02e9 eb3c
00000030: 30ca 4cbd 8da7 233d 0258 0dbd f44a 033d
00000040: 6d2b 01bd 7a6e 97bd b404 3f3d f153 1c3d
00000050: 3418 91bd 8b19 163d 41c4 5a3c 3234 48bc
00000060: 27d3 d839 46aa dbbb e4fe 0d3c 08de 9fbd
00000070: 1ded ac3c a940 62bd 59f7 99bd 43e6 46bd
00000080: f857 75bc 75ae 9ebd b25e 8fbd e517 383c
00000090: 1865 81bd 74f2 f0ba 538a 46bd fe8b b53c
000000a0: 7ada ccbc 482c 193c 3e06 a7bc 20bb 353b
000000b0: d8db a0bc 65c2 243d f8f5 89bd 5449 353d
000000c0: 2ea4 9dae 90e8 3bbd 1401 5fbd f67c 54bc
000000d0: a72c b23c 9572 6bbd dc0f fa3c 60cf cfbb
000000e0: c64f a3bd ae69 71bd 908a 38bd 6907 90bd
000000f0: 5cdd 17ba 67bd 383d 25f6 0f3d 12f9 2fbd
00000100: 2a53 85b8 fd82 18bd 7b9f 2bbd 5d49 8c3c
00000110: 4e40 62bb e48e 67bd 1616 123c f806 9cbc
00000120: e50b 273b 7d79 e7bc 0e75 03bd c492 43bd
00000130: 5ce5 84bd 32a6 383d cf8b a8bc 31a5 92bd
00000140: f030 f9bc 8c69 1c3d 2882 16bd 8cf1 883c
00000150: 7dac b3bd a490 e8bb 825c 043d 62a4 3c3d
00000160: a1b3 99bb 6284 0abd c2bf 4dbd 14f4 d33a
00000170: fcc6 8ebd 0de3 253c 1b76 33ba 981a 043d
00000180: 4373 0ebd 2516 893c 7261 d23c 6844 16bc
00000190: d473 96bc 281d 96bd 873c 90bd c989 0d3d
000001a0: 75bc 92bd 8564 afbc 88cf 53bd eb54 233d
000001b0: eac5 90bb b859 f5bc 2b46 023d e6dc 15bd
000001c0: 04d2 48bd 648a 35bd 264c 36bd 2e4b fc3c
000001d0: b1e5 a33c eb65 8d3c d52e 46bb 662f 16bd
000001e0: 4116 353c 0978 1abd 5f8f 843b d687 74bd
000001f0: d8e3 723c 93b2 4d3c 5db9 b7bb 2175 50bc
00000200: 2b79 65bd af51 4dbb a575 62bd f1c3 21bd
00000210: b508 16bd 56fa bcbc 7720 89bb f10e 9fbc
00000220: 03e8 453c 5a24 28bc 725b c53c 0ca1 88bd
00000230: 6a58 e43a 6c2f c53c 746f 8cbd 9e28 3c3d
00000240: b204 f8bd dea8 f6bc 894c 68bb 71f5 a6bd
00000250: a016 b93a 140b 8dbd b532 e43c 553f bfbc
00000260: 9ef9 353c 2812 ff3c 11c4 3e3d cca1 9abd
00000270: e78d c93c 688a a73c 98ec 59bd dda8 57bd
00000280: 79b8 f83b 2f4b 0bbd cf2a 8dbc 54a7 a5bd
00000290: 50e0 4dbb 30a2 67bd a746 c13d 87f6 56bc
000002a0: 7b34 bcbc de16 573b b472 d33c d75a 11bd
000002b0: aa9c 88bd 7f6d 2bbd 9c45 1bbd a1ca 06bb
000002c0: 7aaf 213d 98dc d63b 68f5 84bb 6596 6fbd
000002d0: 17dc 88bd b471 8abd 185f a7bd 825e 44bd
000002e0: 2f25 7cbd 527c 7dbd e674 283d 8a12 863c
000002f0: e673 7cbc bbc0 18bb 13df a9b8 5f1a 4dbd
00000300: 3be0 ecbc 3008 3c3d b37c 0fbb 93c8 1a3d
00000310: 4350 d6bc 914f e73c 6a8d bfbc 7e5a b6bd
00000320: c325 73b9 c7ac c73c 27d0 b4bb 6ff0 56bd
00000330: 163e 713b 9ff6 2d3d 0055 133d eb6d 98b8
00000340: ec8f 213c ce5f 743c b23d 063d bb24 c1bb
00000350: 3e0e 14bc 46b0 4abd 7f31 023d 9339 98ba
00000360: c403 273a 9666 0a3d 111d 8cbc 8cb5 f53b
00000370: e268 8b3c 54bf 8dbd b63b d939 e96e 9a3c
00000380: 0aed 8cbb d2e3 43bd ed3c 96b7 fd1d 8bbd
00000390: e56a 0a3d c778 213d 14ba 0fbd 83e0 243d
000003a0: 166c d0bc 34e3 1a3d 75c0 7e3c c42f b4bc
000003b0: ee26 9d3c b6fb 44bc 9eb9 183d 3c6f 4cbd
000003c0: a053 913c 099a e7bb 97e7 9bbc f2de 203d
000003d0: e354 c7bb 2bd7 8f3c e0b3 5bbd 26ed 173d
000003e0: 76f4 8bbd 10cc a0bb 9ef0 9f3b f7eb a43c
000003f0: c926 e23c cacc 7bbd a74f febc a12a 90bd
0.023669222 0.018695213 0.020711876 0.041077994 -0.0047864555 0.014198593 -0.02095484 0.03232729
-0.0059751444 -0.0030650685 0.0015708919 0.02879763 -0.04999751 0.03995471 -0.03450776 0.032053903
-0.031535555 -0.073941186 0.046635345 0.03816599 -0.070846945 0.036645453 0.013352455 -0.012219476
0.0004135605 -0.006703648 0.008666728 -0.07806021 0.021109158 -0.055237446 -0.07517881 -0.04855944
-0.014974587 -0.07748119 -0.070004836 0.011236166 -0.0631811 -0.0018382804 -0.04847176 0.02216148
-0.025006521 0.009348936 -0.020388719 0.0027729943 -0.01963608 0.04022445 -0.06736368 0.044259384
-7.1686976e-11 -0.045876086 -0.054444388 -0.012969246 0.021749808 -0.05748232 0.03052514 -0.0063418597
-0.079742 -0.058938675 -0.04505402 -0.070326634 -0.0005793178 0.045102503 0.03514685 -0.04296214
-6.357425e-05 -0.037234295 -0.04190014 0.017124826 -0.0034523192 -0.056532755 0.0089163985 -0.019046292
0.0025489267 -0.028256172 -0.032094054 -0.04774739 -0.06489059 0.04508037 -0.020574478 -0.07160414
-0.030418843 0.038186595 -0.03674522 0.016716741 -0.08773134 -0.0070973206 0.032314785 0.046055205
-0.004690603 -0.033817656 -0.050231703 0.0016170763 -0.06971547 0.010124934 -0.0006845907 0.032251924
-0.03477789 0.016734192 0.025681231 -0.009171583 -0.018365778 -0.0732978 -0.07042795 0.03455523
-0.071648516 -0.021410236 -0.05171159 0.039875906 -0.0044181244 -0.029950008 0.0318052 -0.03658762
-0.04902841 -0.044321433 -0.044506215 0.030797567 0.020006986 0.017260512 -0.0030240316 -0.036666296
0.011052669 -0.03771213 0.0040454115 -0.059699856 0.01482483 0.012554782 -0.005606814 -0.012723238
-0.056023758 -0.0031329205 -0.055287976 -0.039493505 -0.036629397 -0.023068588 -0.0041847783 -0.019416304
0.012079242 -0.010262573 0.024091456 -0.06671342 0.0017421369 0.024070464 -0.068571955 0.045937173
-0.121102706 -0.030109819 -0.003544601 -0.08152283 0.0014121123 -0.068868786 0.02785621 -0.023345629
0.011106877 0.031136587 0.046573702 -0.075503916 0.024603797 0.02045174 -0.05320415 -0.052651275
0.00759035 -0.034007248 -0.017232327 -0.08088556 -0.0031414218 -0.05655116 0.09437304 -0.0131203
-0.022974243 0.0032820026 0.02581153 -0.035487022 -0.06670506 -0.04185247 -0.03790818 -0.0020567554
0.039473988 0.0065570585 -0.004057575 -0.058493037 -0.06682604 -0.067599684 -0.081724346 -0.047941692
-0.0615589 -0.06188614 0.041127108 0.016366262 -0.015408492 -0.0023308236 -8.100099e-05 -0.050073978
-0.028915515 0.045906246 -0.0021894395 0.03778894 -0.026161319 0.028236182 -0.023382861 -0.08903979
-0.00023188353 0.024374379 -0.0055179778 -0.05247539 0.0036810688 0.042471524 0.035969734 -7.2683986e-05
0.009860974 0.01491542 0.03277368 -0.005894271 -0.009036599 -0.049484514 0.031785484 -0.0011613838
0.00063711056 0.03378924 -0.017103704 0.0074984487 0.017017785 -0.069212586 0.00041433953 0.018851714
-0.004300718 -0.04782469 -1.7909764e-05 -0.06792829 0.03379335 0.039421823 -0.035089567 0.040253174
-0.025442164 0.037814334 0.015548815 -0.021995433 0.019183602 -0.012022903 0.037286393 -0.04991077
0.01774007 -0.007067923 -0.01903133 0.039275117 -0.0060831173 0.017558655 -0.05363834 0.037091397
-0.068337366 -0.0049071386 0.0048809787 0.020132048 0.027606385 -0.0614746 -0.03104384 -0.07039381

weight f4 [2, 33792]
00000000: 840d 393d 2914 b5bc 060f adbb 359d d8bd
00000010: 8f16 64bc da11 9e3c efa4 b93b 04d2 bdbd
00000020: 10be 4f3b 552a b53c bcd0 22bc fc0c 8d3d
00000030: 8125 efbb 737c a7bb 0a1b 07bc d9da 463d
00000040: ac5e 36bd 2c10 283c 7f94 943c d00a 903c
00000050: f87d 1abd f726 48bb 54cb 93bc 389b d2bb
00000060: 69b6 3c3c 8478 463c f031 aabd 1b46 6ebd
00000070: 0765 d6bd a507 69bc 0875 e13a 9faf f4bc
00000080: 97f3 703a cb06 673d a55c d8bc 7637 433c
00000090: ecb0 0fbc d0d4 1a3d afb5 863c d96e 423d
000000a0: 4c63 db39 8ca5 753d 5cfd 56bc 6345 a9bc
000000b0: 05da c0bc f46e 88bd e2e7 633c 1f94 d8bc
000000c0: 75da 3835 d26e 13bc 422c 2cbd 6aca 113c
000000d0: 59e9 61bd bc6d d0bb 71ca 20bc c21e b7bc
000000e0: 0ce4 b63b 0729 993c f06e 3e3c e0be 21bd
000000f0: 156b ecb9 4c1b 00bd 211a e7bc cefa 4d3c
00000100: 6e0f a83b 4a12 2ebd 8365 6dba e0e4 593d
00000110: 2179 81bc 5cb3 a3ba 695b 60bc 8a2b 163b
00000120: 2a6e b7bb d3e1 51bd 57d1 25bc 945a 6abd
00000130: 5954 8bbc 9868 a53d 2ccc 0dbd 422e 5ebc
00000140: e83a 8b3c 027d 023d d992 febc 60c7 de3c
00000150: f7e0 1c3d 62e7 3d3c 225e 9cbc d575 d43c
00000160: 8629 323c 7fc7 68bc 3ccb 0e3d 54aa 1ebd
00000170: 6b4d 873c 1d4f 923d 9921 21bb c85b 803d
00000180: 8fe8 3b39 7c21 21bd b182 4c3c 3df5 393c
00000190: 62dd 393c af26 e3bb 1800 003d 24d6 1d3c
000001a0: 3598 88bc b857 14bc 3444 8dbc fc83 6e3d
000001b0: e820 81ba 5daa aabb 4e92 6fbd dc69 d7bd
000001c0: bd41 e7bc fd87 10bc e92a 24bd c846 2ebc
000001d0: c885 4c3c 3c87 7c39 8abd 9fbd 47a5 12bd
000001e0: 3309 35bc 21e3 363c 639c 103d a43f eb3b
000001f0: 5980 723d b183 86bc ab3a 5bba 1ed4 db3b
00000200: 7209 8abd e908 0b38 5071 9038 4328 10bd
00000210: b854 20bd aece a6bc f2b2 553c 8544 2fbd
00000220: da73 a8bc e0e1 25bd 41f5 c43b 1aac e23b
00000230: 224c 25bc 09d1 1ebc 364f 9cbb 4c47 753b
00000240: fe85 49bd c56b 99bc c293 a33c dbf4 abbc
00000250: 024a 3abc 6bcb c9bc fd8e adbb f21f 88bb
00000260: 61e4 6b3b d3b6 813b 0bbc 943c 8682 913b
00000270: 71d6 ce3d a39e b93c 8f7a 2cbd 8494 c7b9
00000280: 90d2 953d 259d a0bc da14 29bc 6dd3 80bc
00000290: 9257 16bc 0a60 3c3b 9975 63bd 345f d5bb
000002a0: 761b dcbc 2467 74bb 1bcb 1c3d 55f4 b3bd
000002b0: 9602 5d3b 4327 10bd b543 9c3c 0d5e 2d3c
000002c0: d899 de3b 3cb8 c43b 6a14 a63c 318e 0239
000002d0: f4eb 30bc a968 203c 1f82 f2bb 2831 4fbc
000002e0: 81d4 383c 163a 22bd 4a52 1f3c 1770 18bd
000002f0: bb42 48ba 07f9 ed3a 4e05 a4bc a82c 173b
00000300: ea29 93bc 5d1b 3b3d 6d1b c4bc acd4 253c
00000310: f5de 2b3b 7dc7 88bd 494c 8c3c 1a82 69bd
00000320: 2126 b43c bb65 8d3c 292e 583c 867c 70bc
00000330: 5e62 4cbc 114c 8dbd 77a8 cebd dbda 87bb
00000340: 19b4 a73c 8039 5d3a 6e01 43bc dfa3 07be
00000350: 8ae9 44bb e6aa 1dbd e07c 76bc b6d7 5237
00000360: e6da 6d3a 3c59 22bd 3c33 1fbd e305 c1bc
00000370: 5637 9a3c 6454 18bb 1098 afbb d991 ea3b
00000380: 91f7 a5bd f53b 3b3b d4f7 ea3c 2859 e1bc
00000390: 36f3 ee3b 025b a93c 26da 3ebd 252b 933c
000003a0: 2e64 67bd 0333 d23c 9506 033d 240d a53c
000003b0: 57d8 663c 889f cc38 34ce a03c 5012 eaba
000003c0: 81fb ddbb 6cdd d13c 23b0 03bd 559e 4f3a
000003d0: de44 753c 97c1 e9bc 9385 eebc 748d 283d
000003e0: 7f7a dd39 8c20 4fbd 4eb0 da3c e375 883b
000003f0: 943d 6dbc 015d 073d 9288 fb3c dab3 46bc
0.045178905 -0.02210434 -0.005281332 -0.1057686 -0.013921394 0.019295622 0.0056654136 -0.09268573
0.003169898 0.022114912 -0.009937461 0.06887242 -0.007298172 -0.005111271 -0.008246193 0.048548553
-0.04452388 0.010257762 0.018137215 0.01758328 -0.03771779 -0.0030540803 -0.01804129 -0.006427195
0.011518099 0.012113694 -0.08310306 -0.058172327 -0.10468488 -0.014223014 0.0017201016 -0.029868899
0.0009191571 0.056402963 -0.026411364 0.011915078 -0.008770209 0.03780061 0.016444055 0.047468994
0.00041844917 0.05997233 -0.013121929 -0.020662969 -0.02354146 -0.06661788 0.013910266 -0.026437817
6.886324e-07 -0.00899859 -0.042034395 0.008898357 -0.05515418 -0.0063607376 -0.009813891 -0.022353534
0.0055813845 0.018696321 0.011623129 -0.039488673 -0.0004509321 -0.031276032 -0.028210701 0.0125720035
0.0051287925 -0.04249791 -0.0009055959 0.053196788 -0.01580483 -0.0012489366 -0.013693669 0.0022914135
-0.0055978494 -0.051240753 -0.010120711 -0.05721529 -0.017007994 0.0807659 -0.03461854 -0.013560833
0.016995862 0.031857498 -0.031075882 0.027194679 0.03830048 0.0115908105 -0.019087855 0.025935093
0.010874158 -0.01420772 0.03486179 -0.038736656 0.016516408 0.07143996 -0.0024586676 0.06267506
0.00017920345 -0.039338574 0.012482331 0.011349973 0.011344286 -0.0069321017 0.03125009 0.009633575
-0.01667414 -0.009054117 -0.017244436 0.05823134 -0.0009851726 -0.005208297 -0.058489136 -0.10518238
-0.028229589 -0.008821485 -0.040079985 -0.010636993 0.012483068 0.00024082972 -0.077998236 -0.035802152
-0.011049557 0.01116255 0.035305392 0.0071792174 0.059204433 -0.016420217 -0.0008362929 0.006708636
-0.06740083 3.314848e-05 6.887561e-05 -0.035194647 -0.039143294 -0.020362224 0.013043152 -0.042789955
-0.020563055 -0.040498614 0.006010682 0.0069174888 -0.010088952 -0.009693393 -0.004770185 0.003742653
-0.04920005 -0.018728146 0.019967917 -0.02099078 -0.011370184 -0.02463313 -0.0052965865 -0.004154199
0.0035994279 0.003958562 0.018156072 0.0044406084 0.10099495 0.022658652 -0.04210907 -0.0003806689
0.07315552 -0.019606182 -0.010319913 -0.015725816 -0.009176152 0.0028743767 -0.05553207 -0.0065115932
-0.026868563 -0.0037292922 0.038279634 -0.08786837 0.0033723465 -0.035193693 0.019075254 0.0105815055
0.006793242 0.0060034078 0.020273406 0.00012450737 -0.010798443 0.009790578 -0.0074007655 -0.012645997
0.011281134 -0.039606176 0.009724209 -0.037216272 -0.0007639338 0.0018155881 -0.02002206 0.0023067389
-0.017964322 0.045680393 -0.023938859 0.010121506 0.0026225422 -0.06678674 0.01712622 -0.05700884
0.021990838 0.017260423 0.013194599 -0.014678126 -0.012474624 -0.06899274 -0.10090726 -0.0041459627
0.02047162 0.0008439049 -0.011902196 -0.13246106 -0.0030046427 -0.03849306 -0.015044421 1.25671995e-05
0.0009073451 -0.03963588 -0.03886722 -0.023562377 0.018825214 -0.002324366 -0.0053587034 0.0071584997
-0.0810386 0.0028569673 0.028682627 -0.027508333 0.0072921766 0.020673279 -0.04659476 0.017964909
-0.056492023 0.02565909 0.0319887 0.020147868 0.014089665 9.757193e-05 0.019629575 -0.0017858241
-0.0067743664 0.025618277 -0.0321504 0.00079200167 0.0149700325 -0.028534694 -0.029116428 0.041150525
0.00042243671 -0.05056815 0.026695397 0.004164444 -0.014480013 0.03304768 0.03070477 -0.012127841

bias f4 [2]
00000000: f410 693c 5a02 693c
0.014225233 0.014221752
